weights/best_auto.pt (torch, 178491 bytes, 13 tensors)

encoder_head.0.weight f4 [16, 1, 3, 3]
-0.18571247 -0.15413457 -0.1108277 -0.13338798 -0.10179259 -0.07177623 -0.24596074 -0.1578399
-0.10472059 -0.18629296 -0.15366682 -0.10961607 -0.13225828 -0.09932164 -0.06865324 -0.24622099
-0.15628038 -0.10179254 -0.18579938 -0.15386358 -0.110270284 -0.13358837 -0.10168639 -0.07131829
-0.24586265 -0.15768431 -0.10421824 -0.1855495 -0.15379138 -0.11027425 -0.1328412 -0.10113607
-0.07104215 -0.2459361 -0.15742743 -0.1040416 -0.18644385 -0.1533637 -0.10909403 -0.13182415
-0.098454416 -0.067607306 -0.2462723 -0.15575747 -0.10091 0.11160322 0.12146571 0.06962387
0.113473274 0.13200831 0.07517318 0.12213427 0.11878198 0.038730506 0.09531798 0.109428845
0.0681968 0.10353294 0.12760474 0.08509079 0.12082343 0.12840304 0.06582754 -0.18661097
-0.15360087 -0.10906245 -0.13154474 -0.09787977 -0.066929236 -0.24669409 -0.15535375 -0.10043255
-0.18567167 -0.15360819 -0.109790765 -0.13256116 -0.10042631 -0.07006195 -0.2461329 -0.15700795
-0.10320398 0.10223081 0.11425869 0.074574776 0.10469015 0.12409997 0.08194438 0.11877083
0.12254064 0.060066745 -0.18544169 -0.15332982 -0.109381825 -0.13207178 -0.09985281 -0.06942294
-0.2460617 -0.15660387 -0.10268699 -0.1863811 -0.15352125 -0.109266326 -0.13180648 -0.09856733
-0.06781419 -0.24624093 -0.15576005 -0.101068534 -0.18553522 -0.1538501 -0.11031524 -0.13286595
-0.10101394 -0.07083452 -0.24595323 -0.15732488 -0.10395093 0.11529948 0.12401849 0.07055857
0.116114065 0.13355798 0.07224996 0.1236436 0.117647976 0.031139947 -0.18729825 -0.15706961
-0.11474006 -0.13907266 -0.109068364 -0.079498656 -0.24714309 -0.16283537 -0.11132419 -0.1855778
-0.15401278 -0.110756755 -0.1338461 -0.1023964 -0.07232482 -0.24599896 -0.15832591 -0.10515809
00000000: 692b 3ebe 74d5 1dbe a2f9 e2bd dc96 08be
00000010: a278 d0bd 6bff 92bd 22dd 7bbe c8a0 21be
00000020: c077 d6bd 95c3 3ebe d65a 1dbe 647e e0bd
00000030: b76e 07be 2569 cbbd 129a 8cbd 5b21 7cbe
00000040: f707 20be 9b78 d0bd 3142 3ebe 6a8e 1dbe
00000050: 63d5 e1bd 64cb 08be f440 d0bd 530f 92bd
00000060: 6bc3 7bbe ff77 21be 5f70 d5bd b000 3ebe
00000070: 7d7b 1dbe 77d7 e1bd 8607 08be 6e20 cfbd
00000080: 8c7e 91bd acd6 7bbe a834 21be c313 d5bd
00000090: 23eb 3ebe 600b 1dbe b16c dfbd e9fc 06be
000000a0: 78a2 c9bd b375 8abd ce2e 7cbe e37e 1fbe
000000b0: e7a9 cebd 3b90 e43d 04c3 f83d f696 8e3d
000000c0: ad64 e83d 302d 073e 65f4 993d 8821 fa3d
000000d0: f743 f33d e1a3 1e3d 1336 c33d 3b1c e03d
000000e0: c4aa 8b3d 1409 d43d d1aa 023e 1544 ae3d
000000f0: 4672 f73d 167c 033e 97d0 863d f216 3fbe
00000100: 8c49 1dbe 225c dfbd aab3 06be 3075 c8bd
00000110: 3212 89bd 609d 7cbe 0e15 1fbe 95af cdbd
00000120: b720 3ebe 774b 1dbe fbd9 e0bd 1dbe 07be
00000130: 4fac cdbd a47c 8fbd 430a 7cbe b1c6 20be
00000140: 9c5c d3bd 635e d13d 7600 ea3d a9ba 983d
00000150: ca67 d63d 2028 fe3d 75d2 a73d 1f3e f33d
00000160: 96f6 fa3d 8c08 763d 6de4 3dbe 7e02 1dbe
00000170: 9403 e0bd d33d 07be a17f ccbd 9d2d 8ebd
00000180: 99f7 7bbe c45c 20be 8e4d d2bd b0da 3ebe
00000190: ad34 1dbe 06c7 dfbd 47f8 06be abdd c9bd
000001a0: 2be2 8abd 9526 7cbe 907f 1fbe 05fd cebd
000001b0: f2fc 3dbe e18a 1dbe f5ec e1bd 030e 08be
000001c0: 66e0 cebd b011 91bd 2adb 7bbe c619 21be
000001d0: 3ae4 d4bd 2222 ec3d 68fd fd3d 0381 903d
000001e0: 36cd ed3d 6cc3 083e c9f7 933d db38 fd3d
000001f0: 6cf1 f03d 3419 ff3c 1dcb 3fbe dbd6 20be
00000200: d6fc eabd 1069 0ebe 3c5f dfbd 31d0 a2bd
00000210: 1413 7dbe 51be 26be f0fd e3bd 1b08 3ebe
00000220: 87b5 1dbe 70d4 e2bd f40e 09be 34b5 d1bd
00000230: 091f 94bd 27e7 7bbe 3020 22be 205d d7bd

encoder_head.0.bias f4 [16]
0.019648489 0.01815908 0.019682862 0.019148268 0.017556433 0.08870515 0.08785181 0.01710165
0.018800505 0.08746114 0.018480329 0.017716317 0.019073917 0.088899754 0.024416864 0.020134762
00000000: def5 a03c 5ac2 943c f43d a13c d4dc 9c3c
00000010: 82d2 8f3c 0cab b53d a6eb b33d c218 8c3c
00000020: 8403 9a3c d31e b33d 0f64 973c cf21 913c
00000030: e740 9c3c 1311 b63d e005 c83c a8f1 a43c

encoder_head.3.weight f4 [32, 16, 3, 3]
-7.791076e-08 -6.985781e-08 3.5928917e-08 -6.4922446e-08 -4.408225e-08 -7.7444966e-08 -2.5222443e-08 -7.59457e-08
-1.1688807e-07 -8.192018e-08 -8.727494e-08 6.138752e-08 -7.226804e-08 -5.573752e-08 -1.051381e-07 -1.95254e-08
-8.475276e-08 -1.2540248e-07 -8.1460044e-08 -8.731873e-08 5.9948746e-08 -7.2037146e-08 -5.6922598e-08 -1.0662376e-07
-2.1480382e-08 -8.628458e-08 -1.2529212e-07 -6.705635e-08 -6.745924e-08 4.981779e-08 -5.6716374e-08 -4.1353942e-08
-8.100833e-08 -1.7258776e-08 -6.3461734e-08 -9.8648975e-08 -8.5835325e-08 -8.688181e-08 5.284713e-08 -7.442195e-08
-5.6853075e-08 -1.03449715e-07 -2.5804543e-08 -9.003314e-08 -1.3173403e-07 -1.3252451e-06 -4.9051005e-07 -1.0294243e-07
-1.3528468e-06 -1.7645905e-07 -2.4209388e-07 -9.1963176e-07 -1.2254766e-06 -2.2277698e-06 -5.9621055e-07 -1.6077635e-07
-8.0060445e-08 -4.1938466e-07 -2.1315793e-07 -3.7642724e-08 -3.6026455e-07 -6.025144e-07 -8.67261e-07 -1.0152074e-07
-1.0015815e-07 6.771347e-08 -9.094946e-08 -6.8900405e-08 -1.18987785e-07 -2.494679e-08 -1.0178932e-07 -1.5050378e-07
-8.2533454e-08 -8.3538325e-08 5.40015e-08 -7.1624584e-08 -5.351683e-08 -9.845457e-08 -2.2308443e-08 -8.4525006e-08
-1.253949e-07 -4.937956e-08 -1.9582563e-08 -7.652264e-08 -3.4684398e-08 -3.8284547e-08 -4.6118926e-09 -4.773521e-08
-6.095402e-08 -5.252583e-08 -7.21763e-08 -7.651635e-08 4.763395e-08 -6.289037e-08 -4.74877e-08 -8.966769e-08
-1.9362464e-08 -7.288046e-08 -1.1058776e-07 -7.9770544e-08 -8.607187e-08 5.5501914e-08 -7.088671e-08 -5.547496e-08
-1.04385876e-07 -2.0388665e-08 -8.1750095e-08 -1.2135358e-07 -6.951334e-08 -7.20246e-08 5.5657278e-08 -5.915959e-08
-4.3072713e-08 -8.654649e-08 -1.4511803e-08 -6.5243796e-08 -1.04679295e-07 -1.6169222e-06 -5.9808406e-07 -9.127524e-08
-1.6538487e-06 -2.4601874e-07 -3.0084277e-07 -1.0569319e-06 -1.4815682e-06 -2.685435e-06 -2.1459272e-08 -6.169871e-08
-5.6410716e-08 -2.1488775e-08 -6.634269e-08 -3.547365e-08 -3.3367726e-08 -7.6845005e-08 -9.0853e-09 -7.6215805e-08
-5.8743716e-08 2.9391913e-08 -6.823106e-08 -2.5254401e-08 -6.1007846e-08 -2.7054762e-08 -7.768801e-08 -1.2748022e-07
-2.8599421e-08 -1.0880427e-07 -4.244233e-08 -8.0543124e-08 -1.4339435e-07 -1.4275176e-07 6.659119e-09 -5.0272863e-08
-2.3961523e-08 -3.888142e-08 -1.5016658e-07 -4.222611e-08 -1.11752136e-07 -1.9848225e-07 -1.9878524e-07 1.2924727e-08
-7.0634755e-08 -3.0554265e-08 -3.922741e-08 -1.5319452e-07 -4.437959e-08 -1.1395007e-07 -2.0326326e-07 -2.0246995e-07
1.3426346e-08 -7.261204e-08 -3.132482e-08 -3.0334224e-08 -1.13242805e-07 -3.1133112e-08 -8.343531e-08 -1.4667235e-07
-1.4979885e-07 8.127835e-09 -5.1503655e-08 -2.2327388e-08 -3.8094466e-08 -1.479273e-07 -4.7465253e-08 -1.0981908e-07
-1.9620087e-07 -1.9525442e-07 1.2592776e-08 -6.9864846e-08 -3.0348478e-08 -4.3016517e-08 -3.852803e-08 -1.09328965e-07
-2.7660219e-09 1.3612476e-09 -2.3561379e-08 -2.2475204e-08 -1.5988416e-08 -3.087806e-08 -3.840258e-08 -4.0258648e-08
-9.08487e-08 -8.106508e-09 5.8852223e-10 -2.4350076e-08 -1.8621224e-08 -1.703376e-08 -2.793732e-08 -4.410986e-08
-1.7101515e-07 -4.843643e-08 -1.2720047e-07 -2.2644407e-07 -2.2610048e-07 1.5130935e-08 -8.0478905e-08 -3.459798e-08
-3.6012946e-08 -1.4010023e-07 -4.2911285e-08 -1.037962e-07 -1.8495238e-07 -1.8478032e-07 1.1622792e-08 -6.5473934e-08
-2.8378725e-08 -4.2811166e-08 -3.9180577e-08 -9.342227e-08 -5.2828697e-09 4.6830113e-09 -2.0829468e-08 -2.4747365e-08
-1.6282813e-08 -3.1278e-08 -3.278877e-08 -1.2796983e-07 -4.205505e-08 -9.477189e-08 -1.6904181e-07 -1.6811568e-07
9.6821555e-09 -6.046567e-08 -2.7015897e-08 -3.8308038e-08 -1.4912398e-07 -4.683897e-08 -1.1059513e-07 -1.9741438e-07
-1.9668684e-07 1.2413546e-08 -7.0205395e-08 -3.0659248e-08 -3.2706467e-08 -1.2135679e-07 -3.1593743e-08 -9.037057e-08
00000000: e54f a7b3 bd04 96b3 4350 1a33 7e6b 8bb3
00000010: f254 3db3 d24f a6b3 bda8 d8b2 9717 a3b3
00000020: e503 fbb3 18ec afb3 e86b bbb3 25d4 8333
00000030: c631 9bb3 0d64 6fb3 48c8 e1b3 cfb8 a7b2
00000040: 5301 b6b3 5fa6 06b4 22ef aeb3 fb83 bbb3
00000050: 2cbd 8033 d7b2 9ab3 0f7b 74b3 08f9 e4b3
00000060: dc83 b8b2 734b b9b3 0988 06b4 9e00 90b3
00000070: 1cde 90b3 3df7 5533 5098 73b3 249d 31b3
00000080: cdf6 adb3 7340 94b2 7548 88b3 d9d8 d3b3
00000090: 7854 b8b3 c893 bab3 09fa 6233 e6d1 9fb3
000000a0: 9e2e 74b3 1528 deb3 caa8 ddb2 3e58 c1b3
000000b0: c672 0db4 13df b1b5 98ab 03b5 3311 ddb3
000000c0: 7693 b5b5 b278 3db4 21f9 81b4 9ddc 76b5
000000d0: 0e7b a4b5 cb80 15b6 470b 20b5 dea1 2cb4
000000e0: b2ed abb3 ca27 e1b4 68e0 64b4 9dac 21b3
000000f0: 626a c1b4 79bc 21b5 b9cd 68b5 9e03 dab3
00000100: 8616 d7b3 e069 9133 ff4f c3b3 66f6 93b3
00000110: 3a86 ffb3 924a d6b2 4597 dab3 2a9a 21b4
00000120: 3f3d b1b3 ae65 b3b3 47ef 6733 08d0 99b3
00000130: 60da 65b3 f96d d3b3 c9a0 bfb2 1d84 b5b3
00000140: 4aa4 06b4 6715 54b3 8336 a8b2 c454 a4b3
00000150: e6f7 14b3 4e6e 24b3 a376 9eb1 6b05 4db3
00000160: d4e5 82b3 c398 61b3 57ff 9ab3 4f51 a4b3
00000170: 1596 4c33 590e 87b3 47f5 4bb3 558f c0b3
00000180: 8252 a6b2 7582 9cb3 447c edb3 524e abb3
00000190: 83d6 b8b3 0061 6e33 623a 98b3 5d43 6eb3
000001a0: be2a e0b3 2623 afb2 978e afb3 6b4d 02b4
000001b0: 5d47 95b3 f1ab 9ab3 d30b 6f33 a816 7eb3
000001c0: f3fe 38b3 70db b9b3 964f 79b2 281c 8cb3
000001d0: 0dcc e0b3 0605 d9b5 068c 20b5 1803 c4b3
000001e0: cff9 ddb5 8f14 84b4 8483 a1b4 e7db 8db5
000001f0: 4cda c6b5 6c37 34b6 7055 b8b2 397f 84b3
00000200: 3d48 72b3 5196 b8b2 4878 8eb3 b15b 18b3
00000210: 3450 0fb3 fd05 a5b3 9215 1cb2 15ac a3b3
00000220: 664d 7cb3 8079 fc32 6c86 92b3 04ef d8b2
00000230: 6b03 83b3 0d66 e8b2 6fd5 a6b3 7fe1 08b4
00000240: cbaa f5b2 c8a7 e9b3 d649 36b3 0df7 acb3
00000250: f0f7 19b4 4e47 19b4 3bce e431 99eb 57b3
00000260: f2d3 cdb2 93fe 26b3 7a3d 21b4 195c 35b3
00000270: 63fc efb3 631e 55b4 ac71 55b4 8d0b 5e32
00000280: deaf 97b3 c53a 03b3 fe7a 28b3 ca7d 24b4
00000290: e09b 3eb3 b7b4 f4b3 9440 5ab4 8466 59b4
000002a0: b2a9 6632 e4ee 9bb3 018a 06b3 d548 02b3
000002b0: e42f f3b3 38b7 05b3 0c2d b3b3 fd7c 1db4
000002c0: 65d8 20b4 99a2 0b32 de34 5db3 72ca bfb2
000002d0: 4f9d 23b3 f2d5 1eb4 99dc 4bb3 add5 ebb3
000002e0: 49ab 52b4 20a7 51b4 9d57 5832 9b08 96b3
000002f0: 8158 02b3 29c1 38b3 047a 25b3 3cc8 eab3
00000300: 5f14 3eb1 a416 bb30 0564 cab2 7f0f c1b2
00000310: e656 89b2 c99e 04b3 15f0 24b3 dae8 2cb3
00000320: 9a18 c3b3 cd44 0bb2 92c5 2130 622a d1b2
00000330: 81f4 9fb2 a251 92b2 d1fa efb2 4e73 3db3
00000340: 49a0 37b4 6b08 50b3 9994 08b4 7924 73b4
00000350: 07c6 72b4 47f9 8132 bfd3 acb3 e298 14b3
00000360: a7ac 1ab3 756e 16b4 754d 38b3 90e6 deb3
00000370: 5397 46b4 0768 46b4 94ad 4732 ad9a 8cb3
00000380: 7ac5 f3b2 60df 37b3 8047 28b3 709f c8b3
00000390: 9d84 b5b1 34e8 a031 7cec b2b2 0894 d4b2
000003a0: 49de 8bb2 8656 06b3 a2d3 0cb3 1468 09b4
000003b0: 04a0 34b3 6685 cbb3 dc81 35b4 4983 34b4
000003c0: 9256 2632 5bd9 81b3 9610 e8b2 2288 24b3
000003d0: e31e 20b4 fe2b 49b3 5180 edb3 daf8 53b4
000003e0: de30 53b4 5a43 5532 d3c3 96b3 33ae 03b3
000003f0: 2479 0cb3 4d4e 02b4 b0b1 07b3 bf11 c2b3

encoder_head.3.bias f4 [32]
-7.544444e-08 -9.950524e-08 -6.395651e-08 -9.014689e-08 -7.625786e-08 -2.776201e-16 -8.018789e-08 -1.0981082e-07
-3.5330157e-08 -8.786191e-08 -1.0045794e-07 -8.5481794e-08 -8.9279e-08 -8.4376765e-08 -7.5263046e-08 -9.7450716e-08
-7.33288e-08 -9.5372855e-08 -0.0045854254 0.0018788294 -0.030518817 -6.812436e-08 -0.011868447 -9.5235265e-08
0.0012991384 -5.6501825e-08 -7.596102e-08 -0.027398864 -4.961092e-08 -0.031983152 -3.8118582e-08 -7.0880624e-08
00000000: 0504 a2b3 96af d5b3 7758 89b3 c796 c1b3
00000010: 34c3 a3b3 7f09 a0a5 c233 acb3 23d1 ebb3
00000020: ebbd 17b3 99ae bcb3 56bb d7b3 1d92 b7b3
00000030: a6b9 bfb3 9e32 b5b3 4ca0 a1b3 1946 d1b3
00000040: ef78 9db3 c8cf ccb3 5641 96bb 0e43 f63a
00000050: 9902 fabc c34b 92b3 e073 42bc 2484 ccb3
00000060: da47 aa3a 6aac 72b3 0320 a3b3 9573 e0bc
00000070: c913 55b3 c400 03bd d3b7 23b3 0937 98b3

encoder_tail.weight f4 [64, 128]
6.110259e-08 4.4779693e-08 -4.1542783e-09 2.6171076e-08 -7.983801e-09 -1.5786869e-08 3.1595475e-09 -1.9968416e-09
-2.156859e-09 -1.2545933e-08 6.5217796e-09 5.4527907e-09 -1.0586459e-08 -1.751258e-08 -2.9898004e-09 -8.138967e-09
4.822747e-08 2.905915e-08 -7.72726e-09 1.6225883e-08 8.718731e-18 -6.4062446e-18 -4.064713e-18 -1.4409162e-17
-4.0567905e-09 -2.0744029e-08 -1.6135072e-08 -1.8815841e-08 -1.8575607e-08 -1.9910697e-08 -1.7078042e-08 -1.8038577e-08
8.354237e-09 3.576131e-08 5.7532085e-10 2.0638975e-08 7.045879e-08 7.004944e-08 2.3921158e-09 1.3999198e-08
-1.4874042e-08 -1.9887404e-08 -9.006689e-09 -1.2739701e-08 -4.106376e-09 -1.3687225e-08 7.209952e-09 2.3925135e-09
-6.0345675e-09 -1.5792427e-08 2.9059002e-09 -3.0239342e-09 -2.3152271e-09 -1.2920261e-08 8.374555e-09 4.145047e-09
9.2440686e-08 8.3241716e-08 7.603174e-09 2.0677395e-09 2.7013132e-09 -9.479983e-09 -9.947593e-09 -1.0635245e-08
-1.0016519e-08 -1.5795031e-08 6.438832e-09 1.7423502e-09 -1.3353432e-08 -1.5779078e-08 -1.2551044e-08 -1.14159855e-08
-0.0027713554 -0.19353603 0.0025817498 -0.060129408 -0.013931117 -0.1559387 -0.0078079714 -0.04520187
-0.17311011 -0.1972248 -0.05094892 -0.17570771 -9.485996e-09 -1.9895918e-08 -1.6118694e-08 -1.7284679e-08
-0.0073351907 -0.13353062 -0.0050609503 -0.02605141 2.3427738e-08 1.1734287e-08 -9.721683e-09 -1.1467211e-08
-0.01349619 -0.15778823 -0.007850216 -0.044910084 -1.0898502e-08 -1.466745e-08 5.2833804e-09 4.986083e-10
-2.05062e-09 -1.3282393e-08 1.0526415e-08 6.059946e-09 -0.16310136 -0.19243075 0.032879505 -0.1595426
9.7970386e-08 8.233147e-08 3.04898e-08 2.301014e-08 -0.18197118 -0.20674141 -0.061101425 -0.18417995
8.166429e-09 3.335804e-08 3.8815262e-10 1.9305052e-08 -2.1723616e-09 -1.2564569e-08 8.025806e-09 5.479006e-09
2.4806742e-08 2.3455472e-08 1.897369e-08 1.8569871e-08 9.467298e-09 1.8463611e-08 -3.2220266e-09 2.6869647e-09
2.749546e-09 1.4587322e-08 -7.355183e-09 -5.9402634e-09 1.5299705e-08 1.9688253e-08 3.8551193e-09 6.4707106e-09
2.4260157e-08 2.3453346e-08 1.9108272e-08 1.8971203e-08 -1.8846738e-17 3.0335573e-18 3.2949542e-17 -1.0458966e-17
2.4002286e-08 2.4758473e-08 2.1414078e-08 2.2461458e-08 2.2463308e-08 2.3716987e-08 2.0506414e-08 2.1617858e-08
-4.80732e-09 1.3533639e-08 3.9852073e-09 -3.6152858e-09 1.7066005e-08 1.8182504e-08 1.4832113e-08 1.3041724e-08
1.9625125e-08 2.2158591e-08 1.0787826e-08 1.1981181e-08 4.9788187e-09 1.596909e-08 -7.864626e-09 -2.351743e-09
9.2002335e-09 2.0095312e-08 -2.9617044e-09 3.827647e-09 2.9247658e-09 1.5027378e-08 -9.2357935e-09 -4.404903e-09
2.141922e-08 2.4275277e-08 2.2308685e-08 2.2232957e-08 2.200654e-08 2.3410813e-08 1.5578975e-08 1.4395971e-08
1.4100366e-08 2.0300787e-08 -7.259725e-09 -1.949504e-09 2.0987901e-08 2.188886e-08 1.4727767e-08 1.3023631e-08
-0.0044803936 -0.19746478 0.0007313269 -0.061771452 -0.01597628 -0.15907384 -0.009891716 -0.046763647
-0.17598383 -0.20042247 -0.052380994 -0.17852187 2.3056792e-08 2.3668129e-08 2.0075134e-08 2.054697e-08
-0.008972332 -0.13639161 -0.007178489 -0.027591348 2.2314616e-08 2.4304578e-08 1.753295e-08 1.6572292e-08
-0.015544759 -0.16090538 -0.009942694 -0.04646225 1.5404908e-08 1.9254271e-08 -6.0790883e-09 -5.8700267e-10
2.81558e-09 1.5503115e-08 -1.1708299e-08 -6.63433e-09 -0.1658915 -0.19563247 0.032155085 -0.16217655
2.6126619e-08 2.671877e-08 1.9336161e-08 1.9528752e-08 -0.18498227 -0.21009783 -0.06261983 -0.18709658
-4.42332e-09 1.3795831e-08 4.2269814e-09 -3.5715062e-09 2.7658826e-09 1.4637687e-08 -8.912574e-09 -5.971516e-09
00000000: 8137 8333 cb53 4033 6bbd 8eb1 cece e032
00000010: 2129 09b2 b19b 87b2 591f 5931 cf38 09b1
00000020: dd37 14b1 9989 57b2 2e16 e031 415b bb31
00000030: bddf 35b2 926e 96b2 2075 4db1 8ed3 0bb2
00000040: aa22 4f33 bf9d f932 d9c0 04b2 1861 8b32
00000050: 0bd5 2023 4559 eca2 21f6 95a2 ace6 84a3
00000060: e863 8bb1 9a30 b2b2 6699 8ab2 79a0 a1b2
00000070: 3190 9fb2 1608 abb2 03b3 92b2 40f3 9ab2
00000080: 5386 0f32 fa97 1933 9b24 1e30 9649 b132
00000090: 214f 9733 166e 9633 8c62 2431 2081 7032
000000a0: bb88 7fb2 ddd4 aab2 d6bb 1ab2 ccdd 5ab2
000000b0: 1118 8db1 0d25 6bb2 69bb f731 8b69 2431
000000c0: 9e58 cfb1 eaa7 87b2 23b1 4731 9dcd 4fb1
000000d0: e819 1fb1 e9f7 5db2 afdf 0f32 386c 8e31
000000e0: ce83 c633 9ec2 b233 1d9f 0232 0f18 0e31
000000f0: 01a2 3931 68dd 22b2 fae5 2ab2 4db6 36b2
00000100: 1e15 2cb2 a4ad 87b2 913c dd31 7f77 ef30
00000110: 0469 65b2 8f8a 87b2 13a0 57b2 0920 44b2
00000120: a19f 35bb 4f2e 46be 9332 293b 414a 76bd
00000130: 573f 64bc 65ae 1fbe 03da ffbb 9925 39bd
00000140: c743 31be 4cf5 49be d1af 50bd b9ec 33be
00000150: daf7 22b2 96e7 aab2 6275 8ab2 6979 94b2
00000160: 0a5c f0bb 40bc 08be 54d6 a5bb c469 d5bc
00000170: 243e c932 f197 4932 6a04 27b2 5401 45b2
00000180: 201f 5dbc 3d93 21be 319e 00bc a3f3 37bd
00000190: 1e3c 3bb2 21fc 7bb2 1b89 b531 710e 0930
000001a0: e3ea 0cb1 9530 64b2 aad7 3432 d937 d031
000001b0: 0b04 27be 910c 45be a9ac 063d 235f 23be
000001c0: ca63 d233 34ce b033 e4f3 0233 d5a7 c532
000001d0: a756 3abe 05b4 53be 7d45 7abd ab99 3cbe
000001e0: 564c 0c32 8e45 0f33 a063 d52f 42d4 a532
000001f0: 9748 15b1 8fdb 57b2 dee1 0932 d941 bc31
00000200: 9a16 d532 217b c932 96fb a232 9483 9f32
00000210: 9ea5 2232 e999 9e32 7e6a 5db1 95a5 3831
00000220: 86f2 3c31 b89b 7a32 e0b8 fcb1 1c1b ccb1
00000230: 686c 8332 ed1e a932 fd75 8431 f954 de31
00000240: a664 d032 7476 c932 8923 a432 1ef6 a232
00000250: 9ad4 ada3 47d6 5f22 f4f3 1724 12ef 40a3
00000260: 962d ce32 75ac d432 0ef2 b732 45f1 c032
00000270: 56f5 c032 35ba cb32 1526 b032 2cb2 b932
00000280: a22d a5b1 9381 6832 41ee 8831 c870 78b1
00000290: 8b98 9232 c02f 9c32 53d0 7e32 1c0e 6032
000002a0: 1b94 a832 4257 be32 5c55 3932 cbd5 4d32
000002b0: 2712 ab31 662c 8932 fe1c 07b2 4d9c 21b1
000002c0: 0e0f 1e32 0f9e ac32 db86 4bb1 5784 8331
000002d0: 06fd 4831 8e15 8132 73ab 1eb2 f059 97b1
000002e0: 5dfd b732 e685 d032 51a1 bf32 cafa be32
000002f0: e508 bd32 ec18 c932 87d2 8532 2652 7732
00000300: 113e 7232 e761 ae32 3771 f9b1 09f8 05b1
00000310: e248 b432 1d06 bc32 6705 7d32 89be 5f32
00000320: 44d0 92bb 3534 4abe 84b6 3f3a 1004 7dbd
00000330: b0e0 82bc 41e4 22be dd10 22bc 3d8b 3fbd
00000340: 1b35 34be 8c3b 4dbe 748d 56bd 70ce 36be
00000350: 6c0e c632 c44e cb32 b071 ac32 447f b032
00000360: b000 13bc 3eaa 0bbe 8839 ebbb 4007 e2bc
00000370: 5cae bf32 55c6 d032 5d9b 9632 db5a 8e32
00000380: 72af 7ebc 61c4 24be aee6 22bc 334f 3ebd
00000390: c053 8432 9764 a532 3ae0 d0b1 a45a 21b0
000003a0: 357c 4131 b62b 8532 a525 49b2 2ff4 e3b1
000003b0: 76df 29be e153 48be 0db5 033d 9c11 26be
000003c0: 0b6d e032 3283 e532 ab18 a632 2ec0 a732
000003d0: fe6b 3dbe e323 57be d33e 80bd 3f96 3fbe
000003e0: effb 97b1 b502 6d32 ec3c 9131 9a6e 75b1
000003f0: ec11 3e31 3a79 7b32 ea1d 19b2 032e cdb1

encoder_tail.bias f4 [64]
0.05256095 0.048485287 -0.04750354 -0.04751345 -0.04771938 0.049440376 0.047231596 0.05419084
-0.045486093 -0.050887324 0.049954154 0.046786636 0.048951555 0.047084145 0.045696516 0.052613616
0.054178614 0.047708094 -0.05441692 -0.06545063 -0.047692105 0.05804086 0.04881024 0.048724763
0.0511727 -0.047542684 -0.048354506 0.05971598 0.05649324 -0.050656546 0.04778656 0.04968731
-0.054345656 -0.049341932 -0.049558315 0.045545086 0.046824098 0.049848534 0.046444852 -0.047230493
0.050077405 -0.048547935 0.0563698 -0.049038723 -0.04818927 -0.047825675 -0.050075434 -0.047924165
-0.04963476 0.048830092 0.051315002 -0.049072973 -0.04955059 -0.048652846 -0.047706626 -0.04765439
-0.049672082 0.049444307 -0.053136095 -0.05223694 -0.049656697 -0.052635495 -0.047651835 0.04717067
00000000: 274a 573d 8298 463d 1293 42bd 779d 42bd
00000010: 6675 43bd fe81 4a3d eb75 413d 37f7 5d3d
00000020: a04f 3abd 3a6f 50bd ba9c 4c3d 58a3 3f3d
00000030: 6d81 483d 4edb 403d 452c 3b3d 6081 573d
00000040: 65ea 5d3d 9069 433d 47e4 5ebd fb0a 86bd
00000050: cc58 43bd 41bc 6d3d 3fed 473d 9e93 473d
00000060: 779a 513d 1ebc 42bd 600f 46bd be98 743d
00000070: 7565 673d 3d7d 4fbd d7bb 433d ec84 4b3d
00000080: 8d99 5ebd c41a 4abd a9fd 4abd 7c8d 3a3d
00000090: a0ca 3f3d fa2d 4c3d f53c 3e3d c374 41bd
000000a0: f71d 4d3d 33da 46bd 05e4 663d d4dc 48bd
000000b0: 1d62 45bd dbe4 43bd e61b 4dbd 214c 44bd
000000c0: d14d 4bbd 1002 483d ae2f 523d be00 49bd
000000d0: 8ff5 4abd 3548 47bd 0668 43bd 4031 43bd
000000e0: f474 4bbd 1d86 4a3d 3ca5 59bd 67f6 55bd
000000f0: d264 4bbd 5198 57bd 922e 43bd 0836 413d

decoder_head.0.weight f4 [128, 64]
0.1741178 0.15389688 -0.14489411 -0.14378625 -0.1464074 0.17016907 0.14276494 0.19952613
-0.14544274 -0.1694971 0.17150635 0.15143655 0.15273876 0.14241573 0.14765507 0.20039208
0.19953375 0.14441513 -0.17738706 -0.12857772 -0.1461608 0.14864255 0.15912695 0.15755999
0.17685579 -0.14513241 -0.16956653 0.14011154 0.15889688 -0.170977 0.14502643 0.15932545
-0.16763893 -0.16889144 -0.15765236 0.14584908 0.15172686 0.17125621 0.14916758 -0.14326349
0.17107208 -0.14855945 0.15089239 -0.1635686 -0.1682273 -0.14520432 -0.16579767 -0.14798741
-0.17077908 0.15938674 0.17205253 -0.15253821 -0.16981466 -0.15638305 -0.14466588 -0.14590836
-0.15955329 0.17015728 -0.17776664 -0.18515332 -0.1589967 -0.1935046 -0.14438042 0.14251836
-1.2756205e-08 5.8996834e-09 -3.1849063e-09 1.8253807e-08 -3.920317e-09 1.7472136e-08 -1.8366574e-08 -1.2049665e-08
-2.0345446e-08 -9.244159e-09 8.809392e-09 1.8273745e-08 -1.4422335e-08 1.3755515e-09 2.3945198e-08 1.728116e-08
-1.196079e-08 -1.9368068e-08 -1.0730517e-08 1.1076657e-08 -3.883266e-09 -1.6914605e-08 6.1821117e-09 6.1974585e-09
1.7352749e-08 -3.4080028e-09 -1.7519916e-08 -1.731663e-08 -1.1520559e-08 1.6886794e-08 -1.6391601e-08 -1.7343899e-08
-1.7469993e-08 -7.2853665e-09 1.7455022e-08 2.0415008e-08 1.8259263e-08 7.8397555e-09 1.832122e-08 -2.0355773e-09
9.988703e-09 1.8986281e-08 1.0736936e-08 -6.7769674e-09 -1.7604071e-08 1.6158706e-08 1.6954358e-08 -4.516053e-09
-7.4206303e-09 6.496758e-09 1.03208615e-08 1.7971422e-08 -1.7569242e-08 -5.9901293e-09 1.6987837e-08 -3.7393706e-09
1.7212882e-08 1.7444963e-08 1.6720328e-08 -1.0360406e-08 1.7346606e-08 -1.0402785e-08 1.7938103e-08 -1.8788535e-08
0.058787342 0.068143494 -0.062052928 -0.06108842 -0.063394144 0.06406773 0.060157683 0.05466676
-0.06215181 -0.061134577 0.06569865 0.067023724 0.06762402 0.059831418 0.06414992 0.05451016
0.054659583 0.06166937 -0.052561346 -0.044864826 -0.06318052 0.04996353 0.06936515 0.06913402
0.057816148 -0.06226779 -0.068852566 0.048441272 0.051162656 -0.06780709 0.06221502 0.069228634
-0.051850054 -0.0690284 -0.069011256 0.06253051 0.067192405 0.06666872 0.06547414 -0.06058214
0.06427519 -0.065175675 0.050206427 -0.06957835 -0.069322005 -0.062375672 -0.06931008 -0.064705305
-0.06779655 0.06939339 0.05917346 -0.06752452 -0.063594274 -0.068892024 -0.061888073 -0.06295871
-0.06925655 0.06405105 -0.05797305 -0.05665467 -0.069195054 -0.055714857 -0.06162998 0.059937224
2.060068e-07 1.1225199e-07 -8.507939e-08 -1.4587114e-07 -9.318173e-08 1.3605523e-07 1.4059268e-07 2.064227e-07
-1.0897901e-07 -1.4264009e-07 1.3583983e-07 1.214781e-07 1.692711e-07 6.8239146e-08 1.0431122e-07 1.4039055e-07
2.0680265e-07 1.5223355e-07 -1.3862969e-07 -1.5589399e-07 -9.0527564e-08 2.0459754e-07 1.2324959e-07 1.2020116e-07
1.3982795e-07 -8.584641e-08 -1.337509e-07 1.987794e-07 2.0034125e-07 -1.9638865e-07 1.495276e-07 1.8524753e-07
-1.3523523e-07 -1.294097e-07 -1.8270693e-07 1.1177251e-07 1.2213039e-07 1.3563728e-07 1.1853541e-07 -7.567125e-08
1.3781684e-07 -1.6655956e-07 1.3342907e-07 -1.2559153e-07 -1.3250344e-07 -1.5050874e-07 -1.8873168e-07 -9.8655455e-08
-1.3451368e-07 1.2154645e-07 1.4148587e-07 -1.7420405e-07 -1.346631e-07 -1.18910044e-07 -1.4787436e-07 -9.036726e-08
-1.8180673e-07 1.359148e-07 -2.1198053e-07 -1.421572e-07 -1.8393828e-07 -1.4271774e-07 -1.4738504e-07 1.4057603e-07
00000000: f04b 323e 2597 1d3e 1f5f 14be b43c 13be
00000010: d2eb 15be cd40 2e3e f930 123e 9450 4c3e
00000020: f1ee 14be a690 2dbe 5c9f 2f3e 2f12 1b3e
00000030: 8d67 1c3e 6ed5 113e e432 173e 9533 4d3e
00000040: 9352 4c3e 8fe1 133e f4a4 35be e1a9 03be
00000050: 2dab 15be c135 183e 2df2 223e 6857 213e
00000060: af19 353e 979d 14be d9a2 2dbe 6679 0f3e
00000070: ddb5 223e 9814 2fbe cf81 143e 3626 233e
00000080: 8aa9 2bbe e1f1 2cbe 9f6f 21be 7659 153e
00000090: 495e 1b3e ca5d 2f3e 63bf 183e aab3 12be
000000a0: 852d 2f3e f81f 18be 8983 1a3e 877e 27be
000000b0: c743 2cbe 71b0 14be ddc6 29be 038a 17be
000000c0: b6e0 2ebe 4736 233e 8a2e 303e fa32 1cbe
000000d0: e5e3 2dbe e122 20be 4b23 14be 0069 15be
000000e0: f061 23be b63d 2e3e 7508 36be d598 3dbe
000000f0: 08d0 22be 1226 46be 76d8 13be 55f0 113e
00000100: 6226 5bb2 2ab6 ca31 77dd 5ab1 8ccc 9c32
00000110: 79b3 86b1 a215 9632 86c4 9db2 fd02 4fb2
00000120: 1cc4 aeb2 3ed0 1eb2 1e58 1732 64f8 9c32
00000130: 1ac6 77b2 ea0d bd30 0cb0 cd32 ac71 9432
00000140: 1c7c 4db2 d55e a6b2 5059 38b2 a74b 3e32
00000150: 926d 85b1 9c4b 91b2 6e6a d431 6cf1 d431
00000160: 190f 9532 3832 6ab1 b47e 96b2 acbf 94b2
00000170: f4eb 45b2 740e 9132 83cd 8cb2 a3fb 94b2
00000180: ec10 96b2 c352 fab1 00f0 9532 145d af32
00000190: 8bd8 9c32 9caf 0632 ca60 9d32 41e2 0bb1
000001a0: c89a 2b32 4617 a332 8b75 3832 d6da e8b1
000001b0: c337 97b2 5fcd 8a32 07a3 9132 9f2b 9bb1
000001c0: 8ef8 feb1 163a df31 a14f 3132 935f 9a32
000001d0: 2ceb 96b2 bcd1 cdb1 a6ec 9132 da7b 80b1
000001e0: 87db 9332 e1d9 9532 64a0 8f32 8cfd 31b2
000001f0: 9701 9532 efb7 32b2 4e16 9a32 6d64 a1b2
00000200: ffca 703d d18e 8b3d 362b 7ebd da37 7abd
00000210: cad4 81bd f135 833d e767 763d 41ea 5f3d
00000220: e592 7ebd 4068 7abd 048d 863d bc43 893d
00000230: 767e 8a3d ca11 753d 0961 833d 0c46 5f3d
00000240: bae2 5f3d 0599 7c3d 914a 57bd 2ec4 37bd
00000250: ca64 81bd 8fa6 4c3d 510f 8e3d 2396 8d3d
00000260: a0d0 6c3d 830c 7fbd 9302 8dbd 5b6a 463d
00000270: ef8f 513d 72de 8abd 2dd5 7e3d bec7 8d3d
00000280: b960 54bd c35e 8dbd c655 8dbd ff0f 803d
00000290: 2c9c 893d 9c89 883d 4e17 863d fa24 78bd
000002a0: b6a2 833d d37a 85bd 41a5 4d3d 187f 8ebd
000002b0: b2f8 8dbd a27d 7fbd 71f2 8dbd 3784 84bd
000002c0: ebd8 8abd 1f1e 8e3d df5f 723d 4c4a 8abd
000002d0: b73d 82bd 4317 8dbd 597e 7dbd 7ff0 80bd
000002e0: 61d6 8dbd 322d 833d 2675 6dbd ba0e 68bd
000002f0: 23b6 8dbd 4335 64bd b86f 7cbd bc80 753d
00000300: b832 5d34 2f0f f133 e4b4 b6b3 c1a0 1cb4
00000310: 331b c8b3 9416 1234 d2f5 1634 0aa5 5d34
00000320: d807 eab3 9c28 19b4 5edb 1134 a56f 0234
00000330: e3c0 3534 de8a 9233 b301 e033 43be 1634
00000340: 7b0d 5e34 a475 2334 3dda 14b4 d063 27b4
00000350: 0e68 c2b3 58af 5b34 9756 0434 a510 0134
00000360: 9d23 1634 905a b8b3 2b9d 0fb4 1170 5534
00000370: 621d 5734 e7de 52b4 d58d 2034 74e8 4634
00000380: 2d35 11b4 def3 0ab4 192e 44b4 9607 f033
00000390: f222 0334 b1a3 1134 888d fe33 b680 a2b3
000003a0: cefa 1334 8bd7 32b4 b444 0f34 56da 06b4
000003b0: 4546 0eb4 879b 21b4 2ba6 4ab4 69dc d3b3
000003c0: d76e 10b4 6f82 0234 57eb 1734 d80c 3bb4
000003d0: e997 10b4 7d5b ffb3 65c7 1eb4 ed0f c2b3
000003e0: a736 43b4 faef 1134 c49c 63b4 e0a3 18b4
000003f0: 9280 45b4 f43d 19b4 e440 1eb4 3ff1 1634

decoder_head.0.bias f4 [128]
0.11565975 -3.5055418e-08 0.04288105 -4.816539e-06 -6.931372e-05 -1.239286e-06 -5.3309397e-09 -1.1498715e-06
0.2515454 -7.3119466e-08 0.08464117 -0.8193114 0.032485332 -5.8382902e-08 -6.8972795e-08 0.23471704
-0.00027635426 -4.4674096e-08 -5.5402083e-08 0.0728651 0.1333104 0.014704413 5.481993 0.15908627
-1.7116877e-15 -3.6344e-16 -2.4942969e-15 -2.2026717e-15 -4.2486878e-05 -6.799159e-08 -0.00242429 -1.8862769e-17
-4.9680526e-05 -7.045605e-08 -1.7979726e-08 0.0737927 -0.00022412854 -6.175314e-08 -0.0047483644 -3.38601e-05
0.14093633 -5.2222486e-08 -1.1467277e-09 0.046062008 -2.8416342e-05 -0.00013810668 -0.015383382 -1.4630884e-07
-0.0005037216 0.14826998 -2.4534468e-09 0.16311437 -0.00054958416 -6.6637746e-08 0.05035582 0.07543866
-0.000265989 10.930317 -3.8736538e-08 0.012950405 0.079441704 -5.3873872e-08 2.8598979 0.25395498
-0.0031005808 -3.9878316e-08 0.13930248 0.20432281 0.15337107 -7.296299e-08 -2.7330527e-09 0.04466813
0.043944623 -0.0056244293 16.49959 0.17642087 -2.8873153 -6.6199256e-08 -6.0996413e-06 0.040490266
0.15301062 -5.1040157e-08 -5.1389385e-08 0.04484873 0.086707994 -0.03421532 13.392234 0.16857933
0.1201574 0.07382333 0.054439116 0.06248205 0.14152974 -1.8647228e-05 0.04734828 -8.861723e-06
-7.042729e-05 -5.5569585e-06 -2.9979716e-08 0.07333623 -0.00026891308 -7.001115e-08 -5.3327934e-08 -0.00015002226
-0.00022491375 -1.1528241e-06 -0.007332479 -6.9040725e-06 -0.0003695694 -6.10802e-08 -6.806368e-09 -5.9749827e-06
-5.9212194e-05 -5.6309965e-08 -3.064536e-08 0.073707566 0.19815329 -6.234077e-08 0.42746907 0.17848645
0.07448076 -28.8525 15.415243 0.30372253 -5.5121716e-05 -1.3626835e-06 -0.0056731994 -3.7459477e-06
00000000: 05df ec3d d78f 16b3 0aa4 2f3d c19d a1b6
00000010: 855c 91b8 8b55 a6b5 712b b7b1 4955 9ab5
00000020: 8fca 803e da05 9db3 5a58 ad3d 64be 51bf
00000030: 570f 053d aec0 7ab3 321e 94b3 aa59 703e
00000040: a4e3 90b9 b0df 3fb3 3cf3 6db3 4c3a 953d
00000050: 8682 083e c7ea 703c 7d6c af40 83e7 223e
00000060: 21ae f6a6 4782 d1a5 a8bb 33a7 1fb8 1ea7
00000070: f033 32b8 c602 92b3 d6e0 1ebb 74fa ada3
00000080: 0f60 50b8 a04d 97b3 d671 9ab2 a120 973d
00000090: 0c04 6bb9 269d 84b3 2b98 9bbb 0105 0eb8
000000a0: 9d51 103e 3b4b 60b3 e59a 9db0 84ab 3c3d
000000b0: a15f eeb7 bbd0 10b9 950a 7cbc 1119 1db4
000000c0: 2f0c 04ba 16d4 173e 7e99 28b1 7407 273e
000000d0: f811 10ba 7d1a 8fb3 e841 4e3d 967f 9a3d
000000e0: 7074 8bb9 94e2 2e41 465f 26b3 ef2d 543c
000000f0: 55b2 a23d f362 67b3 9108 3740 6306 823e
00000100: 1d33 4bbb ac46 2bb3 4fa5 0e3e 003a 513e
00000110: 4e0d 1d3e d4af 9cb3 5fd0 3bb1 eef5 363d
00000120: 47ff 333d 224d b8bb 29ff 8341 aca7 343e
00000130: c6c9 38c0 6d29 8eb3 85ab ccb6 1fd9 253d
00000140: d1ae 1c3e 3f37 5bb3 3ab7 5cb3 4db3 373d
00000150: f693 b13d 5d25 0cbd 9746 5641 0fa0 2c3e
00000160: 1515 f63d b030 973d 8dfb 5e3d 2eed 7f3d
00000170: 2ced 103e 9e6c 9cb7 45f0 413d cfac 14b7
00000180: 5db2 93b8 e975 bab6 0cc3 00b3 4e31 963d
00000190: e7fc 8cb9 0959 96b3 af0a 65b3 4b4f 1db9
000001a0: d3d6 6bb9 bcba 9ab5 4b45 f0bb 88a9 e7b6
000001b0: c4c2 c1b9 322b 83b3 72dd e9b1 b67c c8b6
000001c0: 9c5a 78b8 76d9 71b3 ee9e 03b3 fef3 963d
000001d0: b2e8 4a3e 33e0 85b3 3add da3e 27c5 363e
000001e0: 5e89 983d ecd1 e6c1 d6a4 7641 8581 9b3e
000001f0: 7e32 67b8 73e5 b6b5 3fe6 b9bb e462 7bb6

decoder_tail.0.weight f4 [32, 32, 3, 3]
6.6777424e-11 0.13242105 2.358994e-10 0.25828654 -6.874363e-08 -0.191737 4.800212e-10 0.03593517
-2.9637349e-07 1.9466522e-11 0.12680249 1.0367913e-10 0.2817919 4.2775067e-08 -0.1850578 1.6774383e-10
0.1600535 6.9074135e-06 8.273448e-11 0.30476293 3.4190335e-11 0.09213581 0.032036558 -0.050072614
5.5041655e-10 0.16919664 5.975037e-06 4.9726737e-11 0.13256569 1.8812828e-10 0.2687716 8.421717e-07
-0.19564223 3.2445865e-10 0.0271494 -4.698396e-06 0.18880427 0.1922239 0.012327094 0.15601781
-0.18129885 -0.0041137435 0.04036272 0.07860917 0.09921177 1.2983052e-11 0.28796408 1.049097e-10
0.23234886 7.100509e-08 -0.18730018 1.9497699e-10 0.22574033 -1.08139055e-07 2.6419833e-11 2.5286312e-10
1.041149e-10 6.3357264e-11 7.154226e-08 -2.5717137e-07 1.9203786e-10 8.9339425e-11 2.6744135e-06 0.14086184
0.096616894 1.1207049e-10 0.062678084 8.637424e-08 -0.0057264147 0.031968977 0.052383658 0.042306
0.1340003 0.20066036 0.000917416 0.06661699 0.020179342 -1.1752701e-07 0.035198897 0.047708057
0.046928503 1.706858e-10 0.4186993 -1.1076847e-09 0.21890487 -0.034460448 -0.0054134317 6.5710387e-10
0.055268906 4.980138e-06 0.18880041 0.19210848 0.012316832 0.15609473 -0.18066986 -0.0011509248
0.040355626 0.07860212 0.09917586 0.18762149 0.19351141 0.012292998 0.15421438 -0.17320226
-0.0030490407 0.040519435 0.0787782 0.0992799 0.18993555 0.19408841 0.012478333 0.15506
-0.17106509 -0.00374689 0.040409546 0.07858888 0.09643434 -1.2063936e-08 2.667037e-10 6.8823033e-06
6.368972e-11 7.66739e-08 -3.793495e-05 2.5523372e-10 1.4742077e-10 1.7766058e-06 0.19148321 0.19928436
0.012828443 0.15145014 -0.15683821 -0.00336163 0.040642146 0.07878627 0.09221622 1.4487764e-10
0.40928933 -1.2397156e-09 0.2166311 -0.035200104 -0.0055333576 7.701173e-10 0.05560908 8.638539e-06
-1.2923143e-14 0.13258588 -1.1608805e-13 0.26764974 9.2697087e-07 -0.19416209 7.970102e-11 0.027268307
-9.3288754e-08 0.19602841 0.2014976 0.013737136 0.14325918 -0.10575743 -0.0067675486 0.041313425
0.07902459 0.080506094 2.1820878e-10 0.16314386 -6.7959746e-08 0.20840877 -0.037965346 -0.018376775
6.445804e-05 0.09524804 0.11889025 3.64521e-11 0.12919256 1.1663293e-10 0.26606867 7.648104e-08
-0.18516858 2.5160704e-10 0.16152267 8.589374e-06 3.451045e-11 1.5529826e-10 -8.809165e-11 5.5199026e-11
2.6848964e-08 -1.8491127e-07 -2.6981797e-10 -2.975522e-11 -1.0550915e-10 0.19242574 0.20093815 0.012992185
0.1502202 -0.15180771 -0.0033964633 0.040740293 0.07879381 0.09026961 3.281945e-11 2.4731395e-10
1.23567545e-11 6.38525e-11 7.462351e-08 -2.8676348e-07 1.9434379e-10 8.4007315e-11 2.451733e-06 1.0576838e-11
3.3629807e-10 1.0551411e-10 5.989483e-11 8.950185e-08 -2.5492358e-07 1.9694843e-10 1.2730493e-10 2.4623087e-06
6.5043906e-15 2.956759e-10 -3.382721e-13 5.3078715e-11 6.989134e-08 -1.18721694e-07 1.5923152e-10 1.339587e-10
-2.962128e-07 0.19445781 0.22267231 0.013388199 0.14692484 -0.12249385 -0.002757618 0.04103585
0.07876213 0.08387935 2.4580243e-10 0.16471452 -7.0196e-08 0.20383026 -0.03795997 -0.018684147
0.00020412618 0.09227369 0.11651086 0.18860103 0.19187984 0.012297367 0.15616857 -0.182757
-0.0011583422 0.040356077 0.07862048 0.0996845 0.13294862 0.09216142 0.007328214 0.055001833
00000000: 59d8 922e 6299 073e e4af 812f 223e 843e
00000010: 36a0 93b3 b456 44be 7df2 0330 c230 133d
00000020: 431d 9fb4 b63a ab2d 83d8 013e 29fe e32e
00000030: 0747 903e afb7 3733 cb7f 3dbe b16f 382f
00000040: 11e5 233e 3bc6 e736 5fef b52e e309 9c3e
00000050: e55e 162e b3b1 bc3d c438 033d f118 4dbd
00000060: 1f4c 1730 e241 2d3e 2d7d c836 54b3 5a2e
00000070: 4dbf 073e 67d9 4e2f 6e9c 893e 9911 6235
00000080: 7056 48be 7f5f b22f 6b68 de3c eaa6 9db6
00000090: e855 413e 58d6 443e 94f7 493c 22c3 1f3e
000000a0: 68a6 39be 95cc 86bb 6153 253d d8fd a03d
000000b0: 8a2f cb3d 7866 642d 0770 933e e9b2 e62e
000000c0: dcec 6d3e 767b 9833 9ecb 3fbe 2561 562f
000000d0: 7928 673e 133a e8b3 2d64 e82d 5203 8b2f
000000e0: 7af3 e42e f852 8b2e c6a2 9933 5d11 8ab4
000000f0: da25 532f a075 c42e 137a 3336 163e 103e
00000100: 14df c53d 1472 f62e 5e5d 803d be7c b933
00000110: a6a4 bbbb e7f1 023d 3f90 563d 0e49 2d3d
00000120: 6037 093e e979 4d3e bf7e 703a 7d6e 883d
00000130: 264f a53c 2863 fcb3 b82c 103d 8669 433d
00000140: 1a38 403d c8ab 3b2f c15f d63e 313d 98b0
00000150: 9928 603e 6626 0dbd 2863 b1bb 939f 3430
00000160: a661 623d 0f1b a736 e554 413e 16b8 443e
00000170: 8acc 493c 4cd7 1f3e 8501 39be a1da 96ba
00000180: f14b 253d 26fa a03d b71c cb3d d91f 403e
00000190: db27 463e 9268 493c 60ea 1d3e ef5b 31be
000001a0: 6ad2 47bb b5f7 253d 7756 a13d 4353 cb3d
000001b0: 777e 423e 1dbf 463e ec71 4c3c 0cc8 1e3e
000001c0: b02b 2fbe 628e 75bb 7b84 253d 35f3 a03d
000001d0: 5e7f c53d c041 4fb2 359f 922f 89ee e636
000001e0: 200e 8c2e eca7 a433 581c 1fb8 f450 8c2f
000001f0: 4217 222f b673 ee35 2d14 443e 3311 4c3e
00000200: 642e 523c bf15 1b3e 329a 20be cb4e 5cbb
00000210: 6178 263d b25a a13d dcdb bc3d 6e4b 1f2f
00000220: 5f8e d13e 9d62 aab0 8bd4 5d3e fc2d 10bd
00000230: 2b51 b5bb 30b0 5330 59c6 633d 3eee 1037
00000240: 7acd 68a8 98c4 073e 1ab4 02aa 6309 893e
00000250: f4d4 7835 6dd2 46be af43 af2e c961 df3c
00000260: 0956 c8b3 acbb 483e 6355 4e3e b911 613c
00000270: 89b2 123e 5a97 d8bd 50c2 ddbb 4438 293d
00000280: a5d7 a13d 61e0 a43d 50ec 6f2f 2f0f 273e
00000290: 44f1 91b3 1c69 553e 8d81 1bbd e48a 96bc
000002a0: a62d 8738 6811 c33d bb7c f33d 6a51 202e
000002b0: 0e4b 043e 403d 002f 273a 883e e53d a433
000002c0: d59c 3dbe 8b52 8a2f 3366 253e 151b 1037
000002d0: 50c7 172e 93c0 2a2f 31b7 c1ae 94c4 722e
000002e0: 7fa1 e632 068c 46b4 8155 94af 66dd 02ae
000002f0: 5f04 e8ae 410b 453e bbc2 4d3e 2cdd 543c
00000300: 53d3 193e 7b73 1bbe 3397 5ebb 4bdf 263d
00000310: a65e a13d 46df b83d 6a57 102e 58f6 872f
00000320: e061 592d c369 8c2e b540 a033 79f4 99b4
00000330: eaae 552f eabb b82e 7488 2436 d811 3a2d
00000340: bfe1 b82f 2a07 e82e cbb5 832e 2a34 c033
00000350: 6edc 88b4 0e8c 582f 27f9 0b2f 243e 2536
00000360: 6a58 ea27 af8c a22f 266e beaa 5271 692e
00000370: 2c17 9633 f1f3 feb3 b013 2f2f 064a 132f
00000380: 2d07 9fb4 f31f 473e 3604 643e 2d5a 5b3c
00000390: 7773 163e 0ede fabd 27b9 34bb 3515 283d
000003a0: 0a4e a13d f0c8 ab3d 9e21 872f ecaa 283e
000003b0: a9be 96b3 e1b8 503e ea7b 1bbd 7f0f 99bc
000003c0: b40a 5639 fdf9 bc3d 3f9d ee3d a120 413e
000003d0: 267c 443e e57a 493c a7ea 1f3e a724 3bbe
000003e0: 84d3 97ba 6a4c 253d c603 a13d 6327 cc3d
000003f0: af23 083e 20bf bc3d 8421 f03b 9a49 613d

decoder_tail.0.bias f4 [32]
0.18709984 0.18524325 -0.09286932 0.18970524 0.18170871 0.17753308 -2.7621222e-06 0.28337675
0.45490718 -0.054750018 0.18127102 0.18011205 0.16829623 -0.00012936442 0.14960356 -0.052179027
0.185945 0.088918395 -0.017092826 0.18574847 -9.629814e-07 0.1407096 -1.2603579e-05 -1.1470879e-05
-0.8199727 0.10880577 -0.012699848 0.18371342 0.08112099 -0.009468025 -0.0041130506 -0.004761125
00000000: 1a97 3f3e 68b0 3d3e 4532 bebd 1742 423e
00000010: d911 3a3e 3bcb 353e e65c 39b6 c216 913e
00000020: 98e9 e83e 8e41 60bd 1c9f 393e 4b6f 383e
00000030: d955 2c3e ffa5 07b9 ad31 193e adb9 55bd
00000040: 5e68 3e3e d91a b63d 4106 8cbc d934 3e3e
00000050: ca3f 81b5 2d16 103e f673 53b7 0d73 40b7
00000060: bbe9 51bf 8fd5 de3d 0613 50bc 5f1f 3c3e
00000070: c322 a63d c61f 1bbc c5c6 86bb 3603 9cbb

decoder_tail.2.weight f4 [32, 16, 5, 5]
2.7300863 1.4161096 0.73904455 1.0836506 2.584153 0.34970105 1.0991102 -5.4061437
0.81572115 0.07214774 -7.152315 11.825708 -0.60412484 -0.25542524 -46.84423 0.19157042
0.22187798 0.12745653 0.9759853 0.42249238 0.9978819 -0.04982601 -77.34781 0.4198744
0.56717473 2.7268622 1.4787625 864.1058 1.1500444 2.6512234 17.596302 1.2615261
26.551525 2.4993596 0.013144629 17.980139 1.2461867 47.646076 1.8768637 0.0016304342
0.07165093 0.28716788 1.9580362 1.0251138 0.43869227 1.1085602 0.022952234 546.69965
7.440889 0.6173333 0.24891526 -0.51922923 -47.207317 0.38115856 0.2173887 -18.49616
0.12348782 0.009830347 -3.5352554 0.017082255 28.12821 0.10310034 38.375137 -0.3364925
-1442.0455 -0.015176401 0.03696201 0.0055993884 0.6211976 0.24715176 -0.054413036 0.03370302
-34.680424 -8.891765 0.24306759 -0.28836486 -0.4848826 863.67896 -0.45587504 0.01598568
18.747925 0.29919612 26.430021 3.016786 -0.017161658 29.834684 79.80264 47.168884
1.271812 -1393.1423 0.08035543 0.11178446 6.526982 -2.0215688 -0.11340972 -0.20309593
-0.034296256 538.6048 8.984611 0.17061561 -2.0395651e-15 -3.8744367e-15 -1.5798006e-16 3.57411e-18
-7.185006e-17 -1.4044054e-16 -3.013996e-15 -3.3649866e-17 -7.7593644e-16 -1.570401e-15 -2.0944127e-19 8.186642e-18
-2.3746385e-18 8.0063366e-18 4.8658908e-18 1.2790974e-19 -1.5341307e-16 -8.3429026e-17 5.808096e-18 -3.2752405e-17
-1.2260806e-16 -3.927196e-15 -6.0029087e-16 -2.4451315e-15 -3.440479e-16 2.7225924 1.4778898 817.6415
1.1474632 2.6065106 16.630688 1.260705 24.875639 2.3725128 0.0122716 17.398848
1.2492285 44.45163 1.8708289 0.002878124 0.0718282 0.28520292 1.9641136 1.0214349
0.4354009 1.0465196 0.021847274 510.75183 7.041025 0.6122573 0.3079468 -0.21227235
-345.3584 0.39544955 0.21043327 -19.362398 0.16119722 0.003970066 -3.0849502 0.019739792
29.832361 0.23489235 40.44626 -0.45592606 -1680.8141 0.061744917 0.021333037 0.03702371
0.41251048 0.25907513 0.1308804 0.035856254 29.96932 -9.338886 0.2629809 2.7301726
1.4851058 874.3661 1.1555674 2.6630402 17.846115 1.2700111 26.819078 2.531166
0.0133027965 18.104435 1.2442346 48.33568 1.8878908 0.0017670252 0.07213716 0.28773504
1.9580252 1.0299473 0.44043317 1.1204287 0.02333123 552.7799 7.5547156 0.6205779
0.45745754 0.98726463 -121.09417 0.830528 0.8419381 5.3949804 0.98315877 17.810423
1.2867657 0.0076762615 19.138851 0.17517003 45.79156 1.3700376 -0.6659845 0.020452112
0.06943208 15.62799 0.6351336 0.42464113 0.99015033 0.050568104 220.47832 1.91688
0.57519364 -1.9897863e-15 -3.7769047e-15 -3.609043e-15 -4.662299e-15 -1.49734e-15 -6.0334987e-15 -7.86847e-15
-6.371754e-15 -7.875149e-15 -3.2899545e-15 -6.5211665e-15 -3.7254046e-15 -7.0509322e-15 -1.7213238e-14 -3.0597255e-15
-1.8816579e-15 -3.2037177e-15 -3.725648e-15 -3.8952407e-15 -1.987145e-15 -3.6595466e-15 -5.333408e-15 -4.1652443e-15
-5.4872154e-15 -2.4576038e-15 -2.7286663e-17 -6.206805e-15 1.0713332e-17 -7.5354264e-16 -1.0699862e-17 9.677674e-18
00000000: bcb9 2e40 1443 b53f 0632 3d3f 10b5 8a3f
00000010: c362 2540 040c b33e a5af 8c3f 21ff acc0
00000020: 1ad3 503f 32c2 933d c4df e4c0 1a36 3d41
00000030: eda7 1abf 19c7 82be 7e60 3bc2 092b 443e
00000040: fb33 633e f783 023e 2cda 793f ec50 d83e
00000050: 3075 7f3f 5c16 4cbd 14b2 9ac2 c7f9 d63e
00000060: 5d32 113f e984 2e40 1748 bd3f c506 5844
00000070: a834 933f a5ad 2940 3ac5 8c41 b079 a13f
00000080: 8669 d441 82f5 1f40 925c 573c 53d7 8f41
00000090: 0c83 9f3f 9595 3e42 123d f03f 4bb4 d53a
000000a0: b9bd 923d ab07 933e eea0 fa3f ee36 833f
000000b0: 469c e03e 4de5 8d3f 5306 bc3c c7ac 0844
000000c0: c31b ee40 8e09 1e3f a4e3 7e3e 35ec 04bf
000000d0: 4bd4 3cc2 3727 c33e 259b 5e3e 23f8 93c1
000000e0: 2fe7 fc3d 770f 213c a041 62c0 16f0 8b3c
000000f0: 9306 e141 4526 d33d 2480 1942 bf48 acbe
00000100: 7541 b4c4 70a6 78bc 7a65 173d 137b b73b
00000110: ce06 1f3f 5a15 7d3e 34e0 5ebd 2e0c 0a3d
00000120: c1b8 0ac2 ab44 0ec1 b6e6 783e 8fa4 93be
00000130: 8842 f8be 74eb 5744 7468 e9be 67f4 823c
00000140: c0fb 9541 3c30 993e af70 d341 0613 4140
00000150: 9b96 8cbc 6fad ee41 f49a 9f42 f0ac 3c42
00000160: bcca a23f 8e24 aec4 6391 a43d 40ef e43d
00000170: 09dd d040 6261 01c0 5b43 e8bd 61f8 4fbe
00000180: 3b7a 0cbd b5a6 0644 f7c0 0f41 dcb5 2e3e
00000190: 56f7 12a7 5f97 8ba7 7c23 36a5 84dc 8322
000001a0: caac a5a4 bbea 21a5 6a2e 59a7 c02e 1ba4
000001b0: 01a6 5fa6 9251 e2a6 bd43 77a0 5304 1723
000001c0: a737 2fa2 dbb0 1323 0a85 b322 5902 1720
000001d0: 8cdf 30a5 ce5f c0a4 ea47 d622 370b 17a4
000001e0: 835b 0da5 fd7d 8da7 a605 2da6 b730 30a7
000001f0: 8254 c6a5 f43e 2e40 7e2b bd3f 0e69 4c44
00000200: 13e0 923f 12d1 2640 a60b 8541 c85e a13f
00000210: 4f01 c741 40d7 1740 d20e 493c d730 8b41
00000220: b8e6 9f3f 78ce 3142 5277 ef3f e89e 3c3b
00000230: aa1a 933d 1e06 923e 1368 fb3f 61be 823f
00000240: deec de3e 5bf4 853f 0ef9 b23c 3c60 ff43
00000250: 1450 e140 e5bc 1c3f 34ab 9d3e ec5d 59be
00000260: e0ad acc3 5d78 ca3e d27b 573e 31e6 9ac1
00000270: e210 253e 5417 823b d36f 45c0 58b5 a13c
00000280: ada8 ee41 9f87 703e f8c8 2142 246f e9be
00000290: 0d1a d2c4 3de8 7c3d 9fc2 ae3c 2ca6 173d
000002a0: 9334 d33e 7fa5 843e 8305 063e 02de 123d
000002b0: 2bc1 ef41 146c 15c1 6fa5 863e 26bb 2e40
000002c0: f217 be3f 6e97 5a44 a2e9 933f 406f 2a40
000002d0: d8c4 8e41 b98f a23f 798d d641 a0fe 2140
000002e0: f9f3 593c e2d5 9041 1443 9f3f bc57 4142
000002f0: 68a6 f13f 879b e73a a6bc 933d 0252 933e
00000300: 92a0 fa3f 50d5 833f 7580 e13e 356a 8f3f
00000310: 2321 bf3c ea31 0a44 3bc0 f140 31de 1e3f
00000320: e037 ea3e 60bd 7c3f 3730 f2c2 7c9d 543f
00000330: 4189 573f aea3 ac40 4bb0 7b3f bf7b 8e41
00000340: bdb4 a43f 2689 fb3b 5e1c 9941 c65f 333e
00000350: 8f2a 3742 645d af3f f67d 2abf 308b a73c
00000360: 6832 8e3d 3f0c 7a41 1e98 223f 906a d93e
00000370: 7e7a 7d3f 8020 4f3d 737a 5c43 535c f53f
00000380: e43f 133f 1461 0fa7 cc13 88a7 8c07 82a7
00000390: 1efa a7a7 18ca d7a6 3461 d9a7 eabe 0da8
000003a0: 0f91 e5a7 b7dd 0da8 f310 6da7 25f3 eaa7
000003b0: cb38 86a7 5f09 fea7 060b 9ba8 f979 5ca7
000003c0: 7696 07a7 29da 66a7 0a3b 86a7 4157 8ca7
000003d0: 5b30 0fa7 5cd9 83a7 0228 c0a7 9911 96a7
000003e0: a1b2 c5a7 ca16 31a7 d0ac fba3 ac9f dfa7
000003f0: 48a0 4523 a231 59a6 ab60 45a3 8685 3223

decoder_tail.2.bias f4 [16]
-0.42053837 -0.015905464 -1.6041834 -1.2786993 -1.5231388e-13 -0.017921938 -1.4158819 -0.010137851
-0.85457647 -7.0483344e-13 -4.3595075e-14 0.67850566 -1.9656479 -0.019514425 -0.018307311 -1.937989e-13
00000000: ce50 d7be 2d4c 82bc e255 cdbf 6bac a3bf
00000010: 7d7d 2baa 07d1 92bc 9e3b b5bf 3b19 26bc
00000020: 86c5 5abf 9a64 46ab b355 44a9 8cb2 2d3f
00000030: 5a9a fbbf b7dc 9fbc 37f9 95bc bb32 5aaa

decoder_tail.4.weight f4 [16, 1, 2, 2]
-0.39176893 37.09917 -1.4517778 -0.44663724 -0.22027105 -0.21733913 -0.2764334 -0.20477633
-0.11129104 -1451.195 -2.7112482 -12.38051 -0.11064363 -964.8453 -6.6827636 -0.5173896
-6.4705812e-15 -6.6079306e-15 -6.8663286e-15 -6.481112e-15 -0.20206039 -0.20549051 -0.24771053 -0.19062318
-0.11786502 -1484.3989 -2.3329785 -3.5639267 -0.22059046 -0.2207491 -0.27777597 -0.2098954
-0.26110637 -1571.2577 -0.23921685 -2.4775352 -4.7616418e-14 -3.965173e-14 -5.147312e-14 -4.3308175e-14
-2.5402937e-15 -3.9522375e-15 -2.6983048e-15 -3.7876514e-15 -0.36424443 -14.056084 -1.060009 -1.0704455
1.8905581 -998.1694 -179.98912 -136.93193 -0.2015791 -0.20623457 -0.24501662 -0.19075184
-0.19917522 -0.20064466 -0.24263923 -0.18809652 -3.562805e-15 -4.550579e-15 -4.071297e-15 -4.7331723e-15
00000000: f095 c8be 8d65 1442 dbd3 b9bf a3ad e4be
00000010: bc8e 61be 268e 5ebe ae88 8dbe e3b0 51be
00000020: 8fec e3bd 3d66 b5c4 1785 2dc0 9216 46c1
00000030: 2199 e2bd 1936 71c4 33d9 d5c0 a573 04bf
00000040: 9420 e9a7 6713 eea7 b462 f7a7 b581 e9a7
00000050: ebe8 4ebe 1b6c 52be d4a7 7dbe b932 43be
00000060: 3763 f1bd c48c b9c4 854f 15c0 6017 64c0
00000070: 77e2 61be 0d0c 62be a738 8ebe d2ee 56be
00000080: bcaf 85be 3f68 c4c4 43f5 74be f08f 1ec0
00000090: fe71 56a9 5593 32a9 78d0 67a9 ed0a 43a9
000000a0: 260c 37a7 f564 8ea7 f06e 42a7 eb76 88a7
000000b0: 3f7e babe b8e5 60c1 60ae 87bf 5c04 89bf
000000c0: cffd f13f d78a 79c4 37fd 33c3 93ee 08c3
000000d0: c06a 4ebe 282f 53be a3e5 7abe 7354 43be
000000e0: 97f4 4bbe cb75 4dbe 6b76 78be 609c 40be
000000f0: 135d 80a7 aff3 a3a7 16af 92a7 cf87 aaa7
