weights/best_auto.pt (torch, 178491 bytes, 13 tensors)

encoder_head.0.weight f4 [16, 1, 3, 3]
-0.14275107 -0.09767163 -0.2708137 -0.16674195 -0.21112727 -0.29914242 -0.27016863 -0.24644288
-0.35160568 -0.035663337 -0.24148302 -0.38841692 0.2327683 0.15243182 -0.11019539 0.19377284
0.2547599 0.079376094 -0.39105415 -0.24074534 -0.20113312 -0.28999856 -0.13307168 -0.06623858
-0.16150789 0.028989447 0.18104386 0.45366788 0.095767185 -0.034539707 0.32927102 -0.06335042
-0.20070273 0.18368132 -0.31813633 -0.34612435 0.19039169 -0.14975359 -0.22207044 0.21419214
-0.058784578 -0.13639313 0.32834405 -0.015198046 -0.14631414 0.4614952 0.41637984 0.21398395
0.15698583 0.16559373 0.18177089 0.14266428 0.3818926 0.4479096 0.10968802 0.20024565
0.31407836 -0.1035613 -0.000112964175 0.20532866 -0.3884455 -0.21882454 0.00025600588 -0.28814948
-0.22156078 -0.32699594 -0.14113906 -0.208393 -0.2888031 -0.13838357 -0.15559864 -0.30496952
-0.19748493 -0.17888333 -0.019741777 -0.18242353 -0.11874307 0.1044001 0.2087727 0.17215702
0.31557897 0.36815628 -0.040236153 -0.25673681 0.009188698 -0.107027575 -0.25928012 -0.32071862
-0.26914155 -0.38809997 -0.30117497 -0.053199563 0.00017624909 -0.2666751 -0.16781345 -0.09792957
-0.28153613 -0.21727802 -0.23402578 -0.14236456 -0.010811034 0.46648502 -0.18837579 -0.024268743
0.23466037 -0.20609674 -0.0038453506 0.29050335 -0.2782242 -0.2737796 -0.42613733 -0.033371497
-0.13896248 -0.35752258 0.2902445 0.12490661 -0.16476795 -0.25966412 0.23996776 0.476511
0.0021905869 0.13991202 0.25049412 0.30143458 0.21397138 0.29665 0.37550482 0.35482323
0.27360648 0.27653253 0.23053095 -0.08543391 0.4912792 0.32272878 -0.2684821 -0.025304943
-0.006104495 -0.23242071 -0.1344219 -0.18300724 -0.32146636 -0.32507882 -0.3049058 -0.4103474
00000000: 562d 12be 1008 c8bd 18a8 8abe 67be 2abe
00000010: bf31 58be 3229 99be 8b53 8abe 865b 7cbe
00000020: a905 b4be b813 12bd 5347 77be 95de c6be
00000030: d05a 6e3e 1617 1c3e 1fae e1bd 636c 463e
00000040: e46f 823e ef8f a23d 4038 c8be f285 76be
00000050: d7f5 4dbe b17a 94be f143 08be 18a8 87bd
00000060: 5362 25be 477b ed3c 9063 393e 2847 e83e
00000070: 9621 c43d 8279 0dbd 3696 a83e ddbd 81bd
00000080: 0485 4dbe f516 3c3e c4e2 a2be 3637 b1be
00000090: 0af6 423e 0159 19be 6f66 63be 2f55 5b3e
000000a0: 19c8 70bd a4aa 0bbe b61c a83e 3a01 79bc
000000b0: 60d3 15be 1949 ec3e bd2f d53e 9c1e 5b3e
000000c0: e5c0 203e 6791 293e 2622 3a3e 9616 123e
000000d0: 6d87 c33e 6854 e53e 1da4 e03d 320d 4d3e
000000e0: e1ce a03e f217 d4bd 2ee7 ecb8 ad41 523e
000000f0: 54e2 c6be 8a13 60be 8738 8639 5488 93be
00000100: d4e0 62be 036c a7be c286 10be f964 55be
00000110: 00de 93be 6cb4 0dbe 4055 1fbe f724 9cbe
00000120: 7d39 4abe 312d 37be 82b9 a1bc 3ccd 3abe
00000130: 912f f3bd b8cf d53d 83c8 553e ee49 303e
00000140: 9193 a13e fb7e bc3e aace 24bd 0273 83be
00000150: 318c 163c 4631 dbbd 5dc0 84be 3b35 a4be
00000160: eccc 89be 0ab5 c6be 9b33 9abe c9e7 59bd
00000170: 81cf 3839 a489 88be 4ad7 2bbe 4c8f c8bd
00000180: 8125 90be 217e 5ebe 74a4 6fbe 04c8 11be
00000190: c320 31bc 20d7 ee3e 95e5 40be 3ecf c6bc
000001a0: cf4a 703e 060b 53be 4702 7cbb dbbc 943e
000001b0: 6773 8ebe d72c 8cbe ac2e dabe 8db0 08bd
000001c0: 2e4c 0ebe 330d b7be ed9a 943e 09cf ff3d
000001d0: eeb8 28be b2f2 84be 1cba 753e 40f9 f33e
000001e0: f38f 0f3b 1945 0f3e c440 803e a255 9a3e
000001f0: 501b 5b3e 82e2 973e 2b42 c03e 64ab b53e
00000200: 2616 8c3e ac95 8d3e 4e10 6c3e f9f7 aebd
00000210: f388 fb3e b53c a53e 7c76 89be 504c cfbc
00000220: 3708 c8bb b2ff 6dbe e5a5 09be 4066 3bbe
00000230: 3d97 a4be bb70 a6be 9d1c 9cbe 0e19 d2be

encoder_head.0.bias f4 [16]
0.28951004 0.18258816 0.3566236 0.3427396 0.20197855 0.120382756 0.24815744 0.2807421
0.21362482 0.2786363 0.25712213 0.18137737 0.3684404 0.1983314 0.17947038 0.3151149
00000000: a93a 943e 64f8 3a3e 5e97 b63e 917b af3e
00000010: 77d3 4e3e 3c8b f63d fc1c 7e3e 6ebd 8f3e
00000020: 77c0 5a3e 6ba9 8e3e 83a5 833e fdba 393e
00000030: 38a4 bc3e 6317 4b3e 15c7 373e bd56 a13e

encoder_head.3.weight f4 [32, 16, 3, 3]
-2.7654547e-27 1.1248153e-27 -1.0850927e-27 -2.8754897e-27 -7.9028233e-26 -5.893922e-26 -2.1934158e-27 -3.9409608e-26
-1.5417308e-26 -1.5026074e-27 -8.308251e-28 -3.4311578e-28 1.1197627e-27 -2.8467383e-26 -1.553518e-27 4.4131917e-30
-2.4629988e-26 -7.8902965e-26 -2.0907716e-27 -2.513817e-27 5.4881714e-28 2.2495986e-27 -5.2769236e-26 -3.452178e-26
-1.2191389e-27 -2.596267e-26 -4.4454246e-27 2.5120278e-27 -9.466364e-28 -1.0352745e-27 3.2294228e-27 -2.7368932e-27
-8.605148e-28 -3.0060552e-27 -3.0486002e-27 -1.5012143e-26 -7.654972e-28 1.4910606e-27 -1.4354907e-27 2.68957e-27
-2.7759669e-27 -1.927497e-27 -7.5008067e-28 2.8570456e-27 -4.3785552e-26 1.4075221e-27 -1.6348197e-27 2.0574636e-27
-2.4765217e-27 -1.4713146e-27 -2.0011741e-27 -1.430002e-29 -1.7179112e-27 -5.729853e-26 -5.6759486e-28 -2.2640814e-27
-1.0994117e-27 2.0582598e-27 -1.3268611e-27 1.6400117e-28 -2.4882919e-27 -2.9573993e-27 -4.3484626e-26 -1.8846322e-28
-7.8461197e-28 9.187534e-28 -1.2675602e-27 -6.2060926e-26 -4.0757642e-26 6.304141e-28 -2.9807066e-26 -5.712812e-27
2.5016174e-27 7.438105e-29 3.2330732e-27 -2.979336e-27 -9.651119e-28 -7.572894e-26 1.4278405e-27 -3.7983175e-26
-7.215562e-26 -1.5951817e-27 2.0308013e-27 -2.8022945e-27 -1.3176362e-27 -1.7065792e-26 -1.8862025e-26 2.9997193e-27
-1.757465e-26 -5.937126e-26 2.7384717e-27 6.9412913e-28 -9.434298e-28 -1.4212954e-27 -6.434398e-26 -4.1720246e-26
1.9366707e-27 -3.538013e-26 -8.554524e-27 -2.7428488e-27 -9.4145455e-28 -1.2477848e-27 1.6481257e-27 -6.433186e-27
-1.5710974e-26 -1.8870795e-27 -7.4493614e-26 -1.8774507e-26 -2.2596978e-27 1.9954647e-27 -3.109402e-27 -1.0822324e-28
-5.600119e-26 -3.7186136e-26 -2.8722695e-27 -2.7294917e-26 -7.09464e-27 5.9290336e-28 1.7516312e-27 6.1503793e-28
4.276603e-28 7.2090764e-28 -2.4277174e-26 -5.7984372e-28 7.598736e-28 -2.0331582e-26 -1.8949616e-27 -1.7457033e-27
3.1190224e-27 -3.2038091e-27 -1.9599176e-27 -2.8839412e-27 -6.664084e-28 -2.2697728e-27 -3.2189007e-26 -1.5965665e-27
3.5017513e-28 -1.2680903e-27 -1.3229046e-27 -7.886363e-26 -5.763207e-26 1.9126277e-27 -4.2449292e-26 -1.1227025e-26
-0.043463305 0.019251797 -0.025652349 0.11320335 0.08523112 0.006451019 0.06024656 0.062747225
-0.052370373 0.31471166 0.028118668 -0.051580686 0.018690975 -0.054146413 -0.05118047 0.0050704847
-0.13140659 0.055753816 -0.0091509465 -0.04377751 -0.030992918 0.078512505 0.059499294 0.015602776
0.040661678 -0.0017369414 -0.037006672 0.11030306 0.01106027 0.048993688 0.25106704 -0.19441707
-0.33202535 0.06360427 -0.10841076 -0.0059838467 0.24609303 -0.06606688 -0.09110736 0.20527513
-0.20685567 -0.19877328 0.084646374 -0.17501684 -0.012031778 0.27685624 0.027839033 -0.043108087
0.036455296 -0.26792556 -0.21830265 -0.0061584213 -0.27563456 -0.08943802 0.26310164 0.033692017
0.062431477 -0.052237943 -0.30302784 -0.015165826 0.029648015 0.0072077704 0.07514713 -0.037897725
0.018189829 -0.019739833 0.101053625 0.059540816 0.005112543 0.07003214 0.06579053 -0.060858794
0.26307088 0.07373739 0.14017583 0.049219314 0.048473623 0.073418595 -0.13015005 -0.14479394
0.07668453 -0.048813548 0.08601645 -0.0019465506 0.23855041 0.0848995 -0.02457429 0.053436182
0.06281469 -0.03190717 -0.03475697 -0.026145361 -0.023296336 0.07501261 0.054724935 0.013264244
0.072884314 0.061895095 -0.0509565 0.1712075 -0.111298144 -0.0304435 0.105289765 -0.28810415
-0.15297964 -0.027998375 -0.15140902 0.0051560574 0.07117323 0.039951246 -0.036910117 0.10506972
00000000: 161a 5b93 ee3b b212 97f0 ab92 dcd1 6393
00000010: 18aa c395 2bed 9195 c2c7 2d93 9d25 4395
00000020: 85af 9894 ff18 ee92 45a6 8392 b879 d991
00000030: f96e b112 b2f6 0c95 2d2a f692 3405 b30e
00000040: 70ec f394 b25a c395 e3a5 2593 442a 4793
00000050: 56ed 2d12 483b 3213 7aa6 8295 8ef1 2a95
00000060: 262e c192 988f 0095 f619 b093 fa05 4713
00000070: 2200 9692 b90b a492 7adc 7f13 cad6 5893
00000080: a15a 8892 0b2a 6e93 f588 7193 4eac 9494
00000090: 8398 7292 9b44 ec12 6c76 e392 f616 5513
000000a0: 4cef 5b93 49b6 1893 c6b5 6d92 c55b 6213
000000b0: c8d0 5895 e107 df12 1586 0193 5202 2313
000000c0: d435 4493 9c23 e992 a28c 1e93 f904 918f
000000d0: 611b 0893 42dd 8d95 c4e0 3392 0761 3393
000000e0: 7035 ae92 7812 2313 e13f d292 6ce5 4f11
000000f0: 8e24 4593 2f4f 6a93 5053 5795 d0e7 6e91
00000100: 49a7 7892 1195 9112 5ada c892 c9a7 9995
00000110: 73d2 4995 45c9 4712 f298 1395 cc4e e293
00000120: d432 4613 1094 bc10 4213 8013 1d0c 6c93
00000130: 97ed 9892 eb7e bb95 1740 e212 6515 3c95
00000140: 0fa6 b295 42c4 fc92 8be5 2013 4905 5e93
00000150: adc9 d092 ec02 a994 eacc ba94 89a9 6d13
00000160: 080d ae94 02ff 9295 cef6 5813 72fa 5b12
00000170: 0f7e 9592 9736 e192 d84e 9f95 b296 4e95
00000180: 5970 1913 a531 2f95 9770 2994 954f 5993
00000190: ef2d 9592 2ab8 c592 f693 0213 42d8 fe93
000001a0: 0d98 9b94 8582 1593 f06f b895 08ef b994
000001b0: 1e08 3393 d518 1e13 2a5a 7693 7330 0991
000001c0: f9a6 8a95 0723 3895 8c90 6393 6b28 0795
000001d0: 1986 0c94 09e6 3b12 4dc7 0a13 cee9 4212
000001e0: ed87 0712 fa76 6412 f36d f094 83c2 3792
000001f0: 45d0 7012 af5a c994 6322 1693 124f 0a93
00000200: 4a1d 7713 f8d4 7d93 da47 1b93 477d 6493
00000210: 7931 5392 76d4 3393 6a64 1f95 6efc fc92
00000220: 2af3 dd11 dbef c892 639f d192 c441 c395
00000230: aab0 8e95 b388 1713 df32 5295 c85f 5e94
00000240: 9406 32bd f2b5 9d3c e024 d2bc 28d7 e73d
00000250: a78d ae3d 1263 d33b 19c5 763d 9e81 803d
00000260: 5182 56bd e321 a13e 1f59 e63c 4546 53bd
00000270: d11d 993c a1c8 5dbd 9da2 51bd 4f26 a63b
00000280: 738f 06be 1d5e 643d daed 15bc 0c50 33bd
00000290: dce4 fdbc 2acb a03d 88b5 733d c9a2 7f3c
000002a0: dc8c 263d 15aa e3ba 4f94 17bd 92e6 e13d
000002b0: 2236 353c 9bad 483d dc8b 803e 4515 47be
000002c0: 3aff a9be f542 823d 7606 debd 2514 c4bb
000002d0: d0ff 7b3e 134e 87bd 7f96 babd a533 523e
000002e0: f9d1 53be 398b 4bbe 145b ad3d 9d37 33be
000002f0: ef20 45bc 1ac0 8d3e af0e e43c 1b92 30bd
00000300: 2652 153d 8a2d 89be bb8a 5fbe 95cc c9bb
00000310: f91f 8dbe 482b b7bd 42b5 863e a400 0a3d
00000320: 26b8 7f3d 74f7 55bd 7726 9bbe 167a 78bc
00000330: 65e0 f23c 292f ec3b bde6 993d a53a 1bbd
00000340: d602 953c 6eb5 a1bc 34f5 ce3d 12e1 733d
00000350: 1e87 a73b 036d 8f3d 2fbd 863d 1247 79bd
00000360: 3ab1 863e a103 973d 418a 0f3e 319a 493d
00000370: 478c 463d 7d5c 963d 0e46 05be dd44 14be
00000380: c70c 9d3d b7f0 47bd 6429 b03d 6623 ffba
00000390: 8f46 743e cadf ad3d 0550 c9bc e6df 5a3d
000003a0: fda4 803d 18b1 02bd 535d 0ebd cc2e d6bc
000003b0: f5d7 bebc 36a0 993d 4127 603d 4652 593c
000003c0: 5f44 953d b685 7d3d c3b7 50bd 0551 2f3e
000003d0: 48f0 e3bd a664 f9bc 29a2 d73d 6382 93be
000003e0: b2a6 1cbe d95c e5bc f70a 1bbe 25f4 a83b
000003f0: 45c3 913d eba3 233d 102f 17bd cb2e d73d

encoder_head.3.bias f4 [32]
-9.9431276e-26 0.04017513 -0.03041359 -1.0726716e-11 -6.451156e-18 -3.3303795e-18 -1.6961045e-18 -4.711272e-18
-6.788729e-18 0.058244098 -3.1307827e-17 -5.0239087e-18 -4.929487e-18 -7.051397e-18 -1.0386026e-17 -8.814483e-19
-1.8525122e-17 -5.6220765e-18 -2.1928672e-25 -1.7479646e-18 -1.6535832e-18 -1.5419912e-17 -3.177555e-18 -3.7153355e-18
-7.3085245e-18 -5.5316417e-18 -9.142219e-18 -7.349086e-18 -3.3810055e-15 -1.856711e-18 -8.240341e-18 -7.058959e-18
00000000: 0f2e f695 ad8e 243d ec25 f9bc d6b4 3cad
00000010: 7201 eea2 17bd 75a2 044d faa1 b5d0 ada2
00000020: bc75 faa2 5d91 6e3d c261 10a4 7a59 b9a2
00000030: b0dd b5a2 4813 02a3 9f96 3fa3 2d14 82a1
00000040: 35dd aaa3 036b cfa2 5ebb 8796 1efa 00a2
00000050: 9b06 f4a1 3d39 8ea3 5176 6aa2 5a12 89a2
00000060: 88d1 06a3 e114 cca2 e9a4 28a3 1491 07a3
00000070: 8ba0 73a7 4700 09a2 e901 18a3 fe36 02a3

encoder_tail.weight f4 [64, 128]
-2.9347103e-27 3.0283871e-27 1.7333254e-28 -2.4948758e-27 0.19244388 0.05416812 -0.11907741 0.029621782
-0.030213399 -0.030280493 -0.026892709 -0.026825694 7.6662537e-13 7.658565e-13 7.6905957e-13 7.6705574e-13
1.1530694e-18 1.222315e-18 1.1716816e-18 1.2286296e-18 -7.327395e-19 -2.8604105e-19 -2.9715709e-19 -4.290363e-19
-4.1994305e-19 2.679257e-19 -1.7539145e-19 2.3393746e-19 1.0095275e-18 1.1095979e-18 1.0316702e-18 1.1091936e-18
1.1457833e-18 1.2443895e-18 1.1857089e-18 1.1993566e-18 0.027329968 0.02837869 -0.0353464 -0.061068688
1.5313186e-18 1.7197043e-18 1.5648845e-18 1.707854e-18 -8.3555783e-19 -3.7187476e-19 -5.646201e-19 -4.798964e-19
-4.9059343e-19 -9.257159e-20 -1.4764163e-19 -2.669965e-19 1.0758714e-18 1.1742244e-18 1.112192e-18 1.1810092e-18
3.4360753e-20 5.1405165e-20 2.395634e-22 -4.111145e-22 -3.1138863e-19 1.3584757e-20 -7.918879e-20 4.1307701e-19
4.7002905e-19 4.8162844e-19 4.59474e-19 4.569122e-19 3.8341564e-19 3.2571436e-19 3.933051e-19 2.9549745e-19
3.748953e-27 2.8030542e-26 1.3839495e-26 1.7622105e-26 -1.185999e-18 -4.757278e-19 -7.584055e-19 -5.3615557e-19
4.273397e-19 5.1344254e-19 1.65987e-20 1.2156257e-18 1.66009e-18 1.7587473e-18 8.6350454e-19 -7.286664e-19
9.1424396e-20 4.2194062e-19 3.1340878e-19 3.3631452e-19 -2.1033386e-19 1.8523632e-19 6.1128576e-20 -7.684388e-20
1.2370468e-18 1.4471506e-18 1.2897751e-18 1.390185e-18 1.0353767e-18 1.1356588e-18 1.0539923e-18 1.1374358e-18
4.615592e-19 7.9621025e-19 6.134985e-19 6.975421e-19 2.0302442e-19 5.8347247e-19 4.5972145e-19 4.5983255e-19
1.766762e-16 1.7453933e-16 1.552663e-16 1.8635405e-16 -1.1757463e-18 -3.5346022e-19 -8.138176e-19 -5.6169265e-19
1.9021964e-19 5.865586e-19 4.440149e-19 5.0337233e-19 1.3716271e-19 5.2389536e-19 3.780788e-19 3.983525e-19
-1.6110766e-27 -2.8588364e-27 5.250491e-28 2.3957359e-27 -0.051535778 0.03500101 -0.009660713 0.008644699
-0.0033191864 -0.0031798724 -0.015489232 -0.015384979 -2.6102655e-12 -2.6056978e-12 -2.6147157e-12 -2.6063411e-12
9.838962e-19 1.0414414e-18 1.0017026e-18 1.0499468e-18 -7.4136135e-19 -3.5656236e-19 -3.1590082e-19 -4.4919707e-19
-4.5429664e-19 1.6890372e-19 -2.184396e-19 1.512881e-19 8.580871e-19 9.414942e-19 8.780845e-19 9.432057e-19
9.768093e-19 1.0590601e-18 1.0127684e-18 1.0251499e-18 0.0046155285 0.00604567 0.24301967 0.23446257
1.3330071e-18 1.4923298e-18 1.3633426e-18 1.4855464e-18 -8.4774225e-19 -4.366551e-19 -5.877305e-19 -5.0953416e-19
-5.131813e-19 -1.6951469e-19 -1.837655e-19 -2.9986117e-19 9.153566e-19 9.973904e-19 9.480301e-19 1.0061992e-18
6.92726e-21 3.2047736e-20 -1.08958355e-20 -1.0095778e-20 -4.3922277e-19 -1.980339e-19 -2.3910514e-19 3.775644e-19
3.9820066e-19 3.9959656e-19 3.9121132e-19 3.7620422e-19 3.1508496e-19 2.5838134e-19 3.2611898e-19 2.3602764e-19
-1.1902898e-28 1.8400752e-26 8.269312e-27 1.9532e-26 -1.1908984e-18 -5.2798897e-19 -7.6990823e-19 -5.615594e-19
4.0996002e-19 2.506656e-19 -3.6408985e-21 1.1132156e-18 1.6023291e-18 1.3552252e-18 1.064518e-18 -2.9819305e-18
1.8897343e-20 3.0842667e-19 2.4330768e-19 2.605564e-19 -2.4667358e-19 9.3524943e-20 1.4585913e-20 -1.1719102e-19
1.0473993e-18 1.2266078e-18 1.0991655e-18 1.1850317e-18 8.790922e-19 9.625873e-19 8.961544e-19 9.661236e-19
3.5417033e-19 6.4358844e-19 5.002953e-19 5.7139393e-19 1.1978894e-19 4.506576e-19 3.6689645e-19 3.610966e-19
2.910567e-17 2.3970564e-17 2.4132637e-17 2.647088e-17 -1.1830539e-18 -4.1126717e-19 -8.242205e-19 -5.773483e-19
1.0967523e-19 4.543048e-19 3.5137963e-19 3.9899222e-19 6.241532e-20 3.998797e-19 2.9382476e-19 3.0644317e-19
00000000: ff82 6893 fdee 6f13 a0b9 5b11 18aa 4593
00000010: 0210 453e 64df 5d3d dbde f3bd 61a9 f23c
00000020: 1782 f7bc cc0e f8bc 194e dcbc 8fc1 dbbc
00000030: 2ec9 572b c791 572b 9578 582b 31e8 572b
00000040: bb29 aa21 c161 b421 e1e8 ac21 5050 b521
00000050: 3b44 58a1 4dd9 a8a0 1c69 afa0 2242 fda0
00000060: 00e4 f7a0 c927 9e20 d010 4fa0 a117 8a20
00000070: dffa 9421 6cbf a321 663f 9821 26b0 a321
00000080: 7816 a921 b5a3 b721 d1fa ae21 69fe b021
00000090: 19e3 df3c 6d7a e83c 63c7 10bd 2923 7abd
000000a0: 95fb e121 97c8 fd21 aaef e621 e608 fc21
000000b0: f79c 76a1 2084 dba0 7da5 26a1 f2a3 0da1
000000c0: 31cc 10a1 1894 da9f f24d 2ea0 5f9b 9da0
000000d0: 46c5 9e21 f248 ad21 6d21 a421 4449 ae21
000000e0: 9a43 221f 08c1 721f a4ce 901b e380 f89b
000000f0: b8cf b7a0 ed4d 801e b0fa ba9f 6fd6 f320
00000100: 64ba 0a21 d126 0e21 e09c 0721 4fdb 0621
00000110: 2254 e220 9044 c020 962a e820 506e ae20
00000120: e682 9413 efcc 0a15 4a0f 8914 5885 ae14
00000130: c705 afa1 fa68 0ca1 80d7 5fa1 c53e 1ea1
00000140: c041 fc20 9f8a 1721 32c5 9c1e 0a65 b321
00000150: 6dfc f421 ccc5 0122 8fdc 7e21 7a10 57a1
00000160: a8de d71f dd11 f920 ff00 b920 6a86 c620
00000170: 8251 78a0 3eb0 5a20 f555 901f 4671 b59f
00000180: 4f8e b621 ce8f d521 5356 be21 b427 cd21
00000190: 6dcb 9821 fa97 a721 b48a 9b21 1cdb a721
000001a0: 6d3a 0821 f2ff 6a21 a312 3521 cae0 4d21
000001b0: 5eb0 6f20 ef35 2c21 92af 0721 f7b7 0721
000001c0: 9cb1 4b25 eb3a 4925 8602 3325 02da 5625
000001d0: 7082 ada1 66a5 d0a0 5232 70a1 4cc8 25a1
000001e0: 5c92 6020 1d1f 2d21 d10c 0321 bd91 1421
000001f0: e3ee 2120 6aa0 1a21 a72d df20 5425 eb20
00000200: 0849 ff92 1780 6293 0b65 2612 4ccf 3d13
00000210: 2e17 53bd 385d 0f3d f847 1ebc 7fa2 0d3c
00000220: b586 59bb 6865 50bb 8cc6 7dbc 4711 7cbc
00000230: 5dae 37ac 145c 37ac 88fe 37ac ab67 37ac
00000240: 8c32 9121 8bb0 9921 41d3 9321 def1 9a21
00000250: aecf 5aa1 2e7a d2a0 9579 baa0 5f94 04a1
00000260: af15 06a1 0468 4720 a9f1 80a0 069c 3220
00000270: 3a43 7d21 a5f0 8a21 1895 8121 4e31 8b21
00000280: d026 9021 294a 9c21 4f75 9521 1149 9721
00000290: dc3d 973b c11a c63b 26da 783e f516 703e
000002a0: 96b7 c421 a03a dc21 a131 c921 5b3a db21
000002b0: 9835 7aa1 bae0 00a1 a977 2da1 5063 16a1
000002c0: e276 17a1 ac20 48a0 b7f3 58a0 bd01 b1a0
000002d0: 3215 8721 5830 9321 91e7 8b21 227d 9421
000002e0: 2dda 021e 5657 171f 07d1 4d9e 30b4 3e9e
000002f0: bca2 01a1 13cc 69a0 8c24 8da0 ebdf de20
00000300: 620e eb20 53e1 eb20 2fee e620 6012 de20
00000310: 4bfe b920 7c85 9820 b581 c020 7d53 8b20
00000320: 1de3 1691 733b b614 65ca 2314 816f c114
00000330: dfbe afa1 b8d5 1ba1 9f3c 63a1 3bbe 25a1
00000340: 68ff f120 84f7 9320 9c8c 899d 1948 a421
00000350: 4876 ec21 f6fe c721 5a18 9d21 1307 5ca2
00000360: f97a b21e 1f10 b620 9e9f 8f20 2cce 9920
00000370: 429c 91a0 5cd4 dc1f 93c2 891e d05a 0aa0
00000380: a091 9a21 ef03 b521 4c35 a221 3be1 ae21
00000390: 2abb 8121 850d 8e21 c23f 8421 1e93 8e21
000003a0: b510 d120 2bf4 3d21 3ea9 1321 4ea5 2821
000003b0: fc6b 0d20 ba02 0521 d393 d820 6027 d520
000003c0: e939 0624 e516 dd23 9495 de23 9926 f423
000003d0: 8396 aea1 f0c4 f2a0 5744 73a1 3467 2aa1
000003e0: 4e7b 0120 4d16 0621 fd6a cf20 0086 eb20
000003f0: bf5f 931f 1d0c ec20 8b71 ad20 62e4 b420

encoder_tail.bias f4 [64]
0.017439175 -0.01985827 -0.0220092 -0.029138515 -0.08737306 0.04110089 0.08111304 -0.10403397
-0.016450226 -0.0749662 0.04814377 0.0058419453 -0.005488149 0.016741674 -0.019931765 0.04920373
0.017228477 0.08764119 -0.04752629 0.036826033 0.031083757 -0.0018506582 -0.0017499094 0.021062389
0.01884797 -0.004202241 0.032382675 0.01955085 0.052763026 0.022863658 -0.013278397 -0.02371774
0.013860412 -0.021190893 -0.017926294 0.0033303527 0.017782802 0.011003291 0.105953224 0.02661144
0.068151824 0.08393134 -0.0041851243 -0.019531725 -0.05097855 0.04134604 -0.0010698253 -0.019012306
-0.056973595 -0.09604872 -0.04148666 -0.0684962 8.529731e-05 -0.11035406 -0.012789045 -0.023438009
0.117754914 -0.122123905 -0.067769185 0.0018520047 -0.045681972 0.0017870341 0.008280963 -0.047260303
00000000: 9adc 8e3c d0ad a2bc a34c b4bc e5b3 eebc
00000010: a6f0 b2bd 6859 283d 981e a63d c30f d5bd
00000020: a0c2 86bc e187 99bd 6732 453d ca6d bf3b
00000030: eed5 b3bb d625 893c f147 a3bc da89 493d
00000040: bc22 8d3c 397d b33d edaa 42bd e5d6 163d
00000050: 5da3 fe3c c991 f2ba 375d e5ba 088b ac3c
00000060: 0f67 9a3c f4b2 89bb b2a3 043d 1b29 a03c
00000070: 0b1e 583d 914c bb3c a28d 59bc b54b c2bc
00000080: c816 633c 8698 adbc 2ada 92bc 0c42 5a3b
00000090: 3dad 913c 2647 343c 01fe d83d 3c00 da3c
000000a0: 2f93 8b3d 32e4 ab3d 5e23 89bb ff00 a0bc
000000b0: e2ce 50bd 775a 293d 6139 8cba b2bf 9bbc
000000c0: 255d 69bd 31b5 c4bd eaed 29bd bc47 8cbd
000000d0: a5e1 b238 4f01 e2bd 2589 51bc 1101 c0bc
000000e0: 7d29 f13d 191c fabd 92ca 8abd f7be f23a
000000f0: 051d 3bbd ea3a ea3a e0ac 073c 0594 41bd

decoder_head.0.weight f4 [128, 64]
-0.011923245 -0.036297824 -0.03322671 0.011056033 0.009806092 -0.008160112 -0.010157503 0.0022809356
0.011910618 -0.0026989116 -0.019843819 -0.0031146873 -0.019609606 0.0056579453 -0.036434446 -0.010190762
-0.019996138 -0.011150942 -0.0039791674 -0.0124842925 -0.011980237 -0.004991668 0.015758686 0.035089377
0.03753756 0.000622069 0.006360001 0.03664672 -0.011960472 -0.0048623043 -0.041366145 0.008362767
0.04148595 -0.034436893 0.038268063 -0.0072535817 -0.0051401947 -0.0025463176 -0.015016898 0.0063665262
-0.0049110404 -0.011399824 -0.00562003 -0.036953993 0.008956446 0.011434725 0.007872245 -0.037378997
0.003463552 0.011676394 0.012044374 0.010067775 -0.0042995387 0.011357663 0.00661435 -0.03357228
-0.014499738 0.014408431 0.012665121 -0.0050424095 -0.004434703 0.007957561 -0.0047223084 0.012293399
-3.0794705e-05 -2.9793607e-06 -2.5354058e-07 2.0504895e-05 -1.1451819e-05 2.6172886e-05 -2.9330626e-05 2.3056318e-06
-2.2984988e-05 -3.3703345e-05 -1.0068299e-05 4.0116785e-05 -1.7910905e-05 6.475863e-05 -3.5487951e-06 2.1718171e-05
-4.056202e-06 -3.0277897e-05 -3.8505008e-05 -1.8240327e-05 -3.0402973e-05 -3.142351e-05 1.0922282e-05 3.1761474e-06
4.7346157e-06 -3.4395693e-05 6.960102e-05 3.3395993e-06 -3.073958e-05 -1.4560658e-05 -9.832378e-06 4.251588e-05
1.002609e-05 -1.3361221e-06 1.4125984e-05 -3.8476675e-05 3.3163888e-05 3.526752e-05 1.1188467e-05 3.8236205e-05
8.647585e-06 2.7125644e-09 -6.258299e-05 -4.045147e-06 -2.1590466e-05 1.846337e-05 -2.2223128e-05 -4.5311012e-06
-9.210952e-06 2.5332592e-05 4.378611e-05 3.2345153e-05 -3.5003453e-05 1.996629e-05 3.304951e-05 -5.7673637e-06
-1.6900753e-05 1.7332588e-05 3.2061842e-05 -3.5330984e-05 -3.377614e-05 -1.5557196e-05 -3.7929574e-05 3.0236683e-05
-0.167157 0.19379182 0.2079136 0.1552453 0.015968394 0.10969844 0.030938184 -0.0036466857
0.027812587 0.059603926 0.1704056 -0.045985386 0.046199523 0.016262375 0.19490997 0.21067771
-0.024206301 0.030413287 -0.16624928 -0.1252475 -0.119017296 -0.05786401 0.017911313 -0.2021603
-0.18636 -0.058007125 -0.00081435055 -0.19131607 -0.027724156 -0.017911533 0.16149528 -0.054303877
-0.16429125 0.20352246 -0.08055406 0.06360554 0.055152383 0.056778695 -0.007496899 -0.055021055
0.009270531 -0.023162344 -0.020598514 0.19251521 -0.2221916 0.041484617 -0.1526471 0.18759741
-0.08054196 -0.033954944 -0.045468993 -0.03598489 -0.055440325 -0.022188155 -0.07835712 0.21386333
-0.012150787 -0.01965426 -0.015601895 -0.05335596 0.092785455 -0.023578681 0.065551564 0.06533658
-2.9543683e-15 -9.60627e-16 -1.061022e-15 1.4287602e-15 -1.7004475e-15 -1.2629218e-15 -3.8941387e-15 -1.2260094e-15
2.478344e-16 -2.3426172e-15 -1.3775865e-15 -1.0560516e-16 -1.9499717e-15 3.682485e-15 -4.162637e-16 -1.6005013e-15
-2.2539907e-16 -3.9488185e-15 -1.4951416e-15 -1.8009595e-15 -2.9834504e-15 1.3435748e-15 1.4578239e-15 3.097627e-16
6.7968973e-16 8.09341e-18 3.7662096e-15 8.5053066e-16 -3.346601e-15 -1.06965e-15 -2.6690405e-16 3.3240978e-15
5.5434528e-17 -1.2359928e-15 2.9892642e-16 -3.450513e-15 -4.575408e-16 -1.8657182e-16 2.1841854e-15 2.5854118e-15
2.0717854e-15 2.9664417e-15 -3.456271e-15 -4.0684054e-16 2.0849873e-15 2.090284e-15 8.0924506e-16 -6.603665e-16
-2.0516904e-15 3.6009073e-15 2.956656e-15 3.9668052e-15 4.8517e-16 3.0949188e-15 2.7726313e-16 -1.8690868e-15
1.3250305e-15 2.9894901e-15 3.0531218e-15 5.578865e-16 -3.3311347e-15 1.1774471e-15 -2.8290064e-16 2.9080676e-15
00000000: b759 43bc 07ad 14bd bb18 08bd 5d24 353c
00000010: bba9 203c feb1 05bc a86b 26bc c07b 153b
00000020: c124 433c 39e0 30bb 818f a2bc c81f 4cbb
00000030: 53a4 a0bc 4966 b93b 493c 15bd 27f7 26bc
00000040: f1ce a3bc 71b2 36bc ad63 82bb eb8a 4cbc
00000050: c248 44bc 2591 a3bb 5c18 813c e1b9 0f3d
00000060: fcc0 193d 5812 233a 8e67 d03b df1a 163d
00000070: dbf5 43bc f753 9fbb 8c6f 29bd fd03 093c
00000080: 2ced 293d b30d 0dbd f9be 1c3d 74af edbb
00000090: 146f a8bb 1fe0 26bb 6f09 76bc 4b9e d03b
000000a0: cbec a0bb 54c6 3abc 3b28 b8bb 125d 17bd
000000b0: 0fbe 123c b658 3b3c 97fa 003c b81a 19bd
000000c0: c3fc 623b 594e 3f3c c455 453c 4ff3 243c
000000d0: 25e3 8cbb 7e15 3a3c 30bd d83b 1683 09bd
000000e0: 4f90 6dbc 5711 6c3c 5e81 4f3c cc3a a5bb
000000f0: fc50 91bb 6e60 023c 98bd 9abb 416a 493c
00000100: 9029 01b8 07f1 47b6 5a1e 88b4 ed01 ac37
00000110: 3021 40b7 d88d db37 0a0b f6b7 74ba 1a36
00000120: e3cf c0b7 b15c 0db8 04eb 28b7 1243 2838
00000130: 603f 96b7 06cf 8738 d627 6eb6 6b2f b637
00000140: 831a 88b6 4afd fdb7 7080 21b8 ce02 99b7
00000150: e309 ffb7 bdcc 03b8 d83e 3737 cc25 5536
00000160: 0ade 9e36 1844 10b8 c3f6 9138 e11d 6036
00000170: 5fee 00b8 8d49 74b7 bef5 24b7 1453 3238
00000180: bb35 2837 ce54 b3b5 a4fe 6c37 0462 21b8
00000190: 7419 0b38 36ec 1338 1ab6 3b37 d05f 2038
000001a0: 1815 1137 f067 3a31 fd3e 83b8 8cbb 87b6
000001b0: 2c1d b5b7 c9e1 9a37 ce6b bab7 dd09 98b6
000001c0: bd88 1ab7 5481 d437 faa6 3738 58aa 0738
000001d0: acd0 12b8 487d a737 a49e 0a38 4785 c1b6
000001e0: 17c6 8db7 7365 9137 247a 0638 5b30 14b8
000001f0: dbaa 0db8 d380 82b7 9216 1fb8 c8a4 fd37
00000200: 342b 2bbe 5d71 463e 4ee7 543e a0f8 1e3e
00000210: 26d0 823c 93a9 e03d 1372 fd3c 3cfd 6ebb
00000220: 39d7 e33c 3f23 743d ce7e 2e3e 2c5b 3cbd
00000230: b63b 3d3d ac38 853c 7b96 473e e6bb 573e
00000240: 4b4c c6bc 4925 f93c 403d 2abe e140 00be
00000250: 57bf f3bd d002 6dbd bfba 923c 1c03 4fbe
00000260: 28d5 3ebe e198 6dbd 247a 55ba 5ce8 43be
00000270: c51d e3bc 35bb 92bc 055f 253e be6d 5ebd
00000280: f73b 28be 3168 503e 87f9 a4bd 9f43 823d
00000290: 77e7 613d c790 683d 8ca8 f5bb c25d 61bd
000002a0: 6de3 173c f5be bdbc 37be a8bc b522 453e
000002b0: 3286 63be c6eb 293d 854f 1cbe 8919 403e
000002c0: 2ff3 a4bd 5714 0bbd b23d 3abd e464 13bd
000002d0: 6515 63bd efc3 b5bc b379 a0bd fdfe 5a3e
000002e0: 1814 47bc f801 a1bc 179f 7fbc c78b 5abd
000002f0: 4d06 be3d 1428 c1bc e63f 863d 2fcf 853d
00000300: 7ae2 54a7 e170 8aa6 cde8 98a6 f3e7 cd26
00000310: 710f f5a6 9701 b6a6 174d 8ca7 c3af b0a6
00000320: e7dd 8e25 a9cd 28a7 f987 c6a6 4982 f3a4
00000330: a182 0ca7 eeac 8427 aef5 efa5 13a8 e6a6
00000340: 08ef 81a5 6c45 8ea7 fd78 d7a6 d7c5 01a7
00000350: f2fa 56a7 29a1 c126 3518 d226 e890 b225
00000360: 40e8 4326 0c4c 1523 27b1 8727 1626 7526
00000370: e425 71a7 1f27 9aa6 16dc 99a5 c886 6f27
00000380: 8aa5 7f24 1620 b2a6 c151 ac25 bba2 78a7
00000390: 8de0 03a6 481a 57a5 1c63 1d27 6e4c 3a27
000003a0: b249 1527 31c1 5527 f20c 79a7 1187 eaa5
000003b0: 3a3d 1627 ef9e 1627 bf3f 6926 7356 3ea6
000003c0: 02d7 13a7 82bc 8127 ad0c 5527 52eb 8e27
000003d0: 3ad7 0b26 2d03 5f27 d1d4 9f25 91ae 06a7
000003e0: fff4 be26 5c6a 5727 2800 5c27 c2cc 2026
000003f0: 9708 70a7 21b0 a926 c414 a3a5 618c 5127

decoder_head.0.bias f4 [128]
-0.011214164 -1.1653804e-05 -0.004775332 -2.0086763e-14 -2.8795766e-06 -1.999602e-15 -6.429672e-17 0.05854967
-1.393039e-17 -1.0671347e-16 -0.0009496323 -3.0036398e-15 -2.0424216e-18 0.06711578 -3.3034193e-14 0.0031025363
-4.0927488e-13 0.01321317 -0.02499096 0.021088053 -1.194624e-19 0.047776192 0.06749869 0.021249268
-0.0067535145 0.008666665 -2.9528023e-14 -2.1859849e-16 -0.00048561624 -5.732652e-15 -3.7466128e-16 0.030215915
-1.5526696e-19 -6.007329e-16 -1.5938794e-12 -1.410377e-12 -1.1541477e-12 -0.021151662 -0.019847063 -1.2185214e-12
-2.6490836e-17 0.07415027 -1.8084691e-08 0.02662241 -1.9953716e-11 -0.009096229 -0.008673625 0.022963982
-1.4705663e-16 0.013149511 -8.920717e-06 -2.2049669e-16 -1.164566e-18 -1.9316052e-11 0.08255618 0.045163896
-0.014249293 0.0117092095 -1.0425958e-08 -7.0958624e-26 -8.2370516e-19 -2.987595e-26 0.11092969 -3.0829203e-17
0.10324343 0.009795042 -1.3581969e-25 0.025724702 -1.0927852e-08 0.055586383 -1.0982302e-25 0.04445769
-1.0215134e-10 0.033248127 0.039775368 -1.469154e-18 -1.2099599e-15 -3.0908833e-16 -3.4022488e-14 -4.5401492e-13
0.10148073 0.039044082 -2.0218411e-07 0.03670636 -2.5853156e-13 -1.5630574e-17 0.11755028 -2.9412996e-07
0.057355624 0.039579112 -1.3907317e-06 0.0065910164 -1.1095644e-08 0.017899698 -0.018709708 -1.862542e-17
-2.8953512e-17 0.043877017 0.062484432 0.022511894 0.04232967 0.046788532 -3.773082e-16 0.04493211
-1.4962349e-17 0.0144374445 -3.0184673e-14 0.015686618 -7.283633e-18 -2.254313e-18 0.0037059253 -5.0379857e-18
0.04004271 0.0010006607 -0.030316671 -7.0402245e-13 0.054787524 -1.2361552e-17 0.026898056 -6.0575196e-16
-2.4862672e-26 0.03063634 -1.1000246e-25 0.020668177 -2.7760717e-18 -4.455237e-16 -3.6378672e-13 0.034224734
00000000: 9dbb 37bc b584 43b7 637a 9cbb ecec b4a8
00000010: c03e 41b6 2516 10a7 1642 94a4 c7d1 6f3d
00000020: 347c 80a3 8410 f6a4 bff0 78ba 606f 58a7
00000030: 41b4 16a2 0074 893d d5c5 14a9 ec53 4b3b
00000040: ba66 e6aa 0d7c 583c d7b9 ccbc dac0 ac3c
00000050: 4c09 0da0 f8b0 433d c13c 8a3d f212 ae3c
00000060: 964c ddbb a1fe 0d3c 7efb 04a9 e306 7ca5
00000070: 4f9a feb9 628a cea7 3ffa d7a5 5e87 f73c
00000080: 8f4e 37a0 4426 2da6 8f51 e0ab 307e c6ab
00000090: 8e6e a2ab 4046 adbc 4f96 a2bc dc7d abab
000000a0: b855 f4a3 19dc 973d a858 9bb2 3e17 da3c
000000b0: c683 afad 5a08 15bc d21b 0ebc f61e bc3c
000000c0: 758b 29a5 0c71 573c 30aa 15b7 2337 7ea5
000000d0: 0fdc aba1 e2e7 a9ad 3713 a93d c7fd 383d
000000e0: de75 69bc fcd7 3f3c d91d 33b2 5faf af95
000000f0: 671d 73a1 44f0 1395 1b2f e33d b32c 0ea4
00000100: 4b71 d33d 627b 203c fa22 2896 9cbc d23c
00000110: 34bd 3bb2 8cae 633d 4ef4 0796 4419 363d
00000120: 18a2 e0ae 302f 083d 7feb 223d 12cf d8a1
00000130: a45f aea6 632d b2a5 4239 19a9 7296 ffaa
00000140: 21d5 cf3d b0ec 1f3d f217 59b4 6859 163d
00000150: 538a 91aa a62a 90a3 34be f03d eae8 9db4
00000160: bbed 6a3d b51d 223d 2da9 bab5 74f9 d73b
00000170: 299f 3eb2 63a2 923c 1a45 99bc 08ca aba3
00000180: 4686 05a4 63b8 333d adef 7f3d dd6a b83c
00000190: e061 2d3d 55a5 3f3d dd80 d9a5 bb0a 383d
000001a0: d900 8aa3 088b 6c3c 8ff0 07a9 3981 803c
000001b0: fc5b 06a3 c556 26a2 1cdf 723b 6ede b9a2
000001c0: d303 243d 9a28 833a ab5a f8bc 2a2a 46ab
000001d0: e268 603d c707 64a3 5059 dc3c 9b98 2ea6
000001e0: 5d3a f694 10f9 fa3c 2c2d 0896 4f50 a93c
000001f0: 83d6 4ca2 d969 00a6 31cb ccaa 3c2f 0c3d

decoder_tail.0.weight f4 [32, 32, 3, 3]
-0.12598364 -2.1060843e-05 0.042788975 -0.047843806 0.050386325 -0.07450269 -0.043999635 -0.02182549
-0.015393028 2.674037e-21 -3.3980286e-20 5.0729744e-24 3.6263528e-18 -7.9270265e-18 1.3561888e-20 1.072788e-18
-5.377205e-17 7.025118e-20 -2.0233394e-05 -0.0017878251 -0.022147032 -0.024491217 -0.03682262 -0.047580913
-0.085100494 0.06291004 0.058672585 -0.07311699 -0.09153329 -0.07140513 0.15098913 -30.854427
0.0651514 0.041661173 -0.020259447 -0.009797189 -6.31325e-11 -5.019518e-11 -2.7004046e-09 -4.1090013e-11
-9.1903635e-10 -2.4447515e-09 -4.447011e-11 -7.229893e-10 -4.93672e-10 1.8319746e-21 -3.6791672e-20 -1.078219e-23
1.10850755e-17 -1.1069305e-17 -3.03686e-20 1.5760044e-18 -5.968179e-17 1.01369524e-19 2.4913416e-21 -2.9764718e-20
1.8279684e-23 5.4371487e-18 -9.005947e-18 -2.72837e-20 1.1905834e-18 -4.1962886e-17 7.7583745e-20 1.7484147e-27
-3.0959554e-24 -3.296437e-26 -6.941526e-26 -1.3469464e-26 -5.0891362e-27 -5.6687945e-26 -6.926608e-26 -5.193053e-26
0.22527683 -0.0034186307 -0.00047088548 -0.012260064 -0.058383096 -0.0052605835 -0.00012222046 -0.010524629
-1.5807241 0.16630812 0.12409195 -0.029113544 0.357305 0.05961526 -8.165767 0.08743509
-0.04861044 0.03292113 -0.12750964 -0.00044278876 -0.0077207345 -0.17330399 -0.10892933 -0.005496795
-3.180436e-05 0.023049055 -0.26988605 1.193519e-21 8.5836944e-21 -8.543715e-19 -6.372281e-20 -1.1874618e-18
4.7195016e-20 5.229638e-19 3.1025815e-19 4.4951295e-20 -0.016676093 0.078272805 -0.03553269 0.13506427
0.052557837 -0.052488517 0.027555097 -0.0031440805 0.0027332732 -0.021928033 -0.021462379 -0.22643891
-0.049421273 0.006681482 -10.274095 -1.430402e-13 0.043932006 -1.4201509e-06 0.31463525 -1.4026849
-0.020862397 0.068939015 0.014150114 0.042724237 0.38890988 0.17484115 0.28517088 -6.122557e-23
5.570568e-22 -3.3804485e-23 3.913518e-18 -1.2364253e-18 1.173686e-19 4.3281714e-19 -9.217228e-19 2.9662018e-20
0.26830664 0.0027872296 -0.09975137 0.13329333 0.03549687 -0.017347597 0.044265203 -0.02671884
0.014042827 1.6153533e-23 -3.2287066e-20 -1.1587636e-23 -9.367709e-29 -3.532123e-18 -1.4141606e-19 -3.9919408e-19
-3.052931e-17 4.283591e-20 1.0570825e-21 -6.876707e-20 -1.1267716e-23 -3.835378e-21 -4.438289e-20 -3.1691243e-19
9.45893e-24 -7.432648e-24 -2.5829966e-24 -0.040655773 -1.460751e-17 0.09807139 -2.0029534e-10 -1.6919577e-10
-2.0224086e-08 -0.0023018252 -1.2115761e-08 0.031829953 -2.1872962 -0.15128388 -8.128927e-06 0.15912637
0.010106117 0.015184086 -0.16262932 -0.15386516 -0.9666871 0.20959261 -1.3619127e-05 -0.7132988
-0.00037015148 0.007886931 -1.0716293 0.039831534 -107.657745 -0.005873293 0.2736748 0.155937
-0.086458124 0.32237417 0.09124116 -0.019320318 0.17165877 0.088516 0.029333701 -0.17548472
-0.059083857 0.07094275 -0.3491201 -0.18702857 0.03756275 -0.33906394 -0.13066985 0.02746483
-0.030483088 -0.32839456 -0.019357173 -0.01738425 0.09929428 0.016338643 0.050417222 0.0811677
-0.021979313 0.25667226 0.038891166 -0.08700673 0.13173066 -0.032304984 -0.79041 0.055382013
0.022439932 -5.8180585 4.773272e-22 1.6274628e-24 5.7973173e-23 9.665254e-18 -5.958431e-20 -5.5241764e-20
9.317523e-19 3.2960684e-21 6.206152e-20 -0.03269881 0.13906407 -0.06014848 0.14825012 0.09432213
0.0465276 0.15908928 0.023513237 -0.029070787 -0.22787283 -0.088090934 -0.028356882 -0.014083012
00000000: db01 01be d1ab b0b7 7e43 2f3d def7 43bd
00000010: e461 4e3d de94 98bd f638 34bd 5fcb b2bc
00000020: 0a33 7cbc 660b 4a1d a577 209f 4e40 c418
00000030: efc9 8522 533a 12a3 a216 801e c950 9e21
00000040: d5fa 77a4 3ce0 a51f e2ba a9b7 7555 eaba
00000050: b16d b5bc cea1 c8bc 51d3 16bd 34e4 42bd
00000060: 2b49 aebd fbd6 803d aa52 703d 5cbe 95bd
00000070: ce75 bbbd da3c 92bd e59c 1a3e ded5 f6c1
00000080: 196e 853d e8a4 2a3d 24f7 a5bc 6484 20bc
00000090: 70d4 8aae c0c2 5cae 0592 39b1 3eb7 34ae
000000a0: 6f9f 7cb0 8600 28b1 e594 43ae d9bb 46b0
000000b0: 14b3 07b0 8b6b 0a1d 67be 2d9f d28e 5099
000000c0: ca7b 4c23 5131 4ca3 6269 0f9f c393 e821
000000d0: e99d 89a4 1e5a ef1f 8e3d 3c1d 568f 0c9f
000000e0: 4eca b019 6b98 c822 6221 26a3 f8d7 009f
000000f0: f8b2 af21 0885 41a4 7f30 b71f 1086 0a13
00000100: b789 6f98 4e3b 2395 26dd ab95 2665 8594
00000110: f999 c993 415a 8c95 987e ab95 e292 8095
00000120: f8ae 663e 1b0b 60bb 2ee1 f6b9 6fde 48bc
00000130: 1d23 6fbd f960 acbb 4e28 00b9 7e6f 2cbc
00000140: 2b55 cabf ad4c 2a3e ec23 fe3d 877f eebc
00000150: aef0 b63e 222f 743d fba6 02c1 2b11 b33d
00000160: be1b 47bd 4fd8 063d e391 02be 1a26 e8b9
00000170: 37fe fcbb 9a76 31be 5716 dfbd 751e b4bb
00000180: ac65 05b8 5fd1 bc3c 812e 8abe 085c b41c
00000190: 3324 221e 7c2a 7ca1 1376 969f 0a3d afa1
000001a0: 46df 5e1f 075a 1a21 e324 b720 c846 541f
000001b0: 4d9c 88bc 7e4d a03d ba8a 11bd 4a4e 0a3e
000001c0: e346 573d 33fe 56bd 3abb e13c eb0c 4ebb
000001d0: b720 333b 6ba2 b3bc dfd1 afbc 9adf 67be
000001e0: f66d 4abd 55f0 da3b b162 24c1 880c 21aa
000001f0: 0cf2 333d 039c beb5 df17 a13e 2e8b b3bf
00000200: 9ee7 aabc e62f 8d3d e1d5 673c 9cff 2e3d
00000210: 321f c73e 8f09 333e eb01 923e cb08 949a
00000220: 2f5c 281c ed77 239a 2262 9022 d476 b6a1
00000230: 7c90 0a20 7a7d ff20 b405 88a1 2e13 0c1f
00000240: 7d5f 893e f4a9 363b 724a ccbd 0c7e 083e
00000250: 2a65 113d 8c1c 8ebc 6e4f 353d 78e1 dabc
00000260: e313 663c 363a 9c19 ab78 189f 3223 6099
00000270: e87f ed90 f54f 82a2 62f4 26a0 81a4 eba0
00000280: a6ca 0ca4 7049 4a1f e6bd 9f1c 255f a29f
00000290: 07f3 5999 80e5 909d 9f97 519f 7412 bba0
000002a0: 5af6 3619 b1c4 0f99 85d9 4798 ab86 26bd
000002b0: 02bb 86a3 a7d9 c83d 203a 5caf 6008 3aaf
000002c0: 3cb9 adb2 38da 16bb ae25 50b2 2060 023d
000002d0: a9fc 0bc0 29ea 1abe 7a61 08b7 06f2 223e
000002e0: 2194 253c acc6 783c 4d88 26be d48e 1dbe
000002f0: ce78 77bf 729f 563e b47d 64b7 c09a 36bf
00000300: e410 c2b9 3038 013c 262b 89bf 6426 233d
00000310: c450 d7c2 c174 c0bb 1a1f 8c3e f3ad 1f3e
00000320: f510 b1bd 3a0e a53e a5dc ba3d a545 9ebc
00000330: 51c7 2f3e e047 b53d 3b4d f03c 44b2 33be
00000340: ea01 72bd 6f4a 913d dfbf b2be 6b84 3fbe
00000350: 66db 193d ca99 adbe 51ce 05be ecfd e03c
00000360: abb7 f9bc 5523 a8be ef92 9ebc 6a69 8ebc
00000370: cd5a cb3d 9ed8 853c 4a82 4e3d 403b a63d
00000380: f60d b4bc 8c6a 833e 584c 1f3d 9630 b2bd
00000390: 67e4 063e 3b52 04bd 4f58 4abf 40d8 623d
000003a0: f3d3 b73c 892d bac0 6743 101c 72d6 fb17
000003b0: a82b 8c1a df4a 3223 81b0 8c9f 996f 829f
000003c0: 9b80 8921 3c0b 791d e389 921f 30ef 05bd
000003d0: d066 0e3e 415e 76bd e1ce 173e f62b c13d
000003e0: ba93 3e3d 4de8 223e d59e c03c dc25 eebc
000003f0: 7f57 69be 0569 b4bd b14c e8bc 6fbc 66bc

decoder_tail.0.bias f4 [32]
-0.012968896 -4.3428864e-16 -0.011694957 0.09521295 -2.524724e-09 -5.560398e-16 -5.25684e-16 -3.7456362e-24
0.060892902 0.0851508 0.06618804 -1.5257057e-16 0.042643007 0.1261437 0.06919472 -1.2679327e-15
0.040466573 -1.29203e-16 -3.9074593e-17 -0.010189961 0.04008986 0.05783486 0.10073114 0.040938083
0.09026907 0.07755039 -1.4230684e-15 0.050836414 0.1101779 -1.7638751e-15 -4.276904e-08 -1.2473776e-15
00000000: 7e7b 54bc b159 faa5 349c 3fbc 02ff c23d
00000010: 6a7f 2db1 7f44 20a6 a284 17a6 fce6 9098
00000020: d66a 793d 8b63 ae3d 988d 873d e2e6 2fa5
00000030: 6faa 2e3d d02b 013e f6b5 8d3d 76ba b6a6
00000040: 47c0 253d fff5 14a5 2333 34a4 cbf3 26bc
00000050: 4435 243d 3fe4 6c3d 214c ce3d b1ae 273d
00000060: fdde b83d bdd2 9e3d f515 cda6 d839 503d
00000070: f3a4 e13d 8133 fea6 0fb1 37b3 1cc4 b3a6

decoder_tail.2.weight f4 [32, 16, 5, 5]
0.13194248 0.06230535 0.05967299 0.08284502 0.14920233 -0.008356588 -0.030955954 0.029879345
0.08600447 0.14331615 0.092002 0.16256362 0.27508253 0.24053206 0.1436032 0.11263131
0.26421055 0.21799812 0.076996274 -0.058515225 0.13260558 0.1026592 0.14328401 0.11280787
0.039726984 -0.10404471 -0.27286893 0.041506942 0.15347922 0.09827982 -0.13048217 0.00046511344
0.049179867 0.083198175 -0.117364205 -0.06013916 -0.025180822 -0.1235589 -0.119691454 -0.29406983
0.0049967817 -0.011487469 -0.1994612 -0.097538166 -0.20667672 0.03486766 0.050841205 -0.016551234
-0.020450234 -0.016390085 -1.2453937e-25 -7.415789e-27 -1.4154258e-23 -2.1912694e-24 -7.694235e-27 -6.233155e-25
-6.5585255e-25 -1.0389954e-24 -4.291465e-25 -5.455385e-25 -1.893463e-23 -6.5363437e-24 -3.4675653e-23 -2.2509991e-23
-1.4514205e-27 -1.4092464e-24 -4.204555e-25 -2.783408e-23 -2.5325135e-24 -1.1119285e-26 -5.7195956e-25 1.3939506e-27
-7.1201234e-25 -8.970207e-25 -1.4801554e-27 -0.05229715 0.05436876 0.17544651 0.06735616 -0.07780207
-0.16317818 -0.017903203 -0.027243292 -0.09589466 -0.08529595 -0.12001424 -0.24532697 -0.30679885
-0.14650239 0.10651195 -0.084036045 -0.19894643 -0.19345516 -0.060749765 0.031722475 0.06816127
-0.014939887 -0.11069991 0.034374677 0.03638069 -0.13336417 -0.031025158 0.107290424 0.009990968
0.022171333 -0.09183372 0.06546421 0.040231407 -0.022689573 -0.05894101 -0.0023447745 -0.09228729
-0.10693266 -0.117313124 -0.02026643 -0.053778518 -0.17653172 -0.21634632 -0.1658683 -0.18922375
-0.015501483 -0.106238775 -0.22211732 -0.09197492 -0.049582858 1.5560583e-19 1.7369203e-20 -4.6557046e-18
2.0929775e-19 1.8776137e-20 4.0632236e-20 4.582832e-20 1.6123248e-21 2.0393771e-20 4.2221816e-20 1.2461149e-19
-4.707162e-18 -8.252209e-18 5.824454e-20 -9.6073564e-20 3.8968908e-19 6.0377354e-20 -1.7889221e-15 5.507449e-19
8.1549404e-20 2.8857142e-20 2.931785e-20 -1.6412166e-21 1.6564329e-20 3.827511e-20 -1.5116168e-24 -1.2659877e-24
-3.2212336e-24 -1.202917e-24 -1.2503417e-24 -8.1879685e-25 -2.6430238e-24 -2.0440725e-24 -8.1021695e-25 -1.32694145e-24
-2.1419258e-24 -3.3931475e-24 -3.024076e-24 -2.498978e-24 -2.1990397e-24 -2.3415222e-24 -2.211976e-24 -4.4885416e-24
-1.2396367e-24 -1.8160736e-24 -7.48412e-25 -2.3282013e-24 -1.9553669e-24 -8.238168e-25 -1.0126879e-24 8.9180894e-21
4.4004623e-21 2.6599482e-20 8.315128e-21 2.433781e-22 2.1927661e-20 1.15956505e-20 2.4607945e-21 1.1869404e-20
2.525532e-21 -2.720871e-18 2.6541033e-21 -4.1531692e-18 -3.8909803e-18 -4.995372e-18 1.23047785e-20 -2.4064539e-17
2.2754204e-20 1.3151072e-20 2.7550615e-21 -7.154695e-21 3.842256e-21 -3.5940105e-21 4.1102754e-21 1.1743321e-21
1.3334437e-20 -5.926087e-19 -3.0192977e-21 1.2109925e-20 -5.816257e-19 2.9060157e-20 -3.3121428e-19 -1.9473154e-15
1.6843208e-20 2.84789e-20 -5.418064e-20 1.2500352e-20 -2.1669042e-17 3.4888827e-20 -9.077539e-18 4.5562633e-20
2.9462112e-20 6.3768505e-21 6.732623e-20 2.3862941e-20 1.4386212e-20 4.6731304e-20 -5.814644e-19 8.559874e-21
2.7438276e-20 -3.4655796e-24 -6.976159e-25 -1.4675824e-25 -2.8406323e-23 -4.543557e-25 -8.865648e-25 -1.7808921e-25
-5.0873354e-25 -1.1468794e-24 -1.5562095e-25 -2.151588e-24 -1.5693915e-24 -1.730112e-24 -2.1600996e-24 -3.4366134e-25
-7.199394e-24 -6.9324303e-25 -1.9890004e-24 -3.4107196e-23 -8.498297e-25 -4.5328746e-25 -6.213636e-26 -3.1258542e-25
-5.1269885e-25 -6.1692793e-26 -0.012228295 0.08320859 0.17150255 0.07375899 -0.08653734 0.12071645
00000000: ee1b 073e e533 7f3d aa6b 743d a6aa a93d
00000010: 7fc8 183e 12ea 08bc 5797 fdbc 87c5 f43c
00000020: 1d23 b03d 78c1 123e 8b6b bc3d 1477 263e
00000030: 9ed7 8c3e 094e 763e b80c 133e 3fab e63d
00000040: 9b46 873e e63a 5f3e 39b0 9d3d a9ad 6fbd
00000050: c2c9 073e fd3e d23d 0bb9 123e d007 e73d
00000060: c3b8 223d 6515 d5bd 7ab5 8bbe 2f03 2a3d
00000070: a829 1d3e ee46 c93d 1e9d 05be 78da f339
00000080: d470 493d ce63 aa3d a55c f0bd 7b54 76bd
00000090: 0348 cebc 730c fdbd cb20 f5bd 5290 96be
000000a0: 0bbc a33b f035 3cbc 8f3f 4cbe 17c2 c7bd
000000b0: 10a3 53be 64d1 0e3d de3e 503d 7496 87bc
000000c0: 4087 a7bc 8044 86bc 1a2c 1a96 84e2 1294
000000d0: 3fe4 8899 908a 2998 6866 1894 24e8 4097
000000e0: fef9 4a97 d9c6 a097 7dd0 0497 03d6 2897
000000f0: e01f b799 d0dc fc98 61ae 279a 0ab4 d999
00000100: 9cfc e592 0012 da97 eb1f 0297 ec98 069a
00000110: 99f1 4398 793d 5c94 4e03 3197 5be1 dc12
00000120: 6e5b 5c97 a7ce 8a97 3c8a ea92 8935 56bd
00000130: c7b1 5e3d 40a8 333e 07f2 893d b156 9fbd
00000140: 2e18 27be bda9 92bc 532d dfbc 6b64 c4bd
00000150: a5af aebd 07ca f5bd fe36 7bbe bd14 9dbe
00000160: b904 16be f022 da3d 171b acbd 9db8 4bbe
00000170: 1c19 46be bfd4 78bd 6def 013d 2398 8b3d
00000180: 6ec6 74bc a2b6 e2bd 76cc 0c3d eb03 153d
00000190: 9e90 08be 7928 febc 15bb db3d 28b1 233c
000001a0: a8a0 b53c 5113 bcbd 1a12 863d b0c9 243d
000001b0: 7cdf b9bc 216c 71bd caaa 19bb 1e01 bdbd
000001c0: 83ff dabd dd41 f0bd c905 a6bc dd46 5cbd
000001d0: bbc4 34be e489 5dbe 61d9 29be dfc3 41be
000001e0: eff9 7dbc b793 d9bd b972 63be 595d bcbd
000001f0: 6517 4bbd fab4 3720 280c a41e e3c3 aba2
00000200: 5d18 7720 ea55 b11e 5ce1 3f1f 0a6b 581f
00000210: cba5 f31c 1d9d c01e 0b63 471f 831d 1320
00000220: e3a9 ada2 f539 18a3 aa86 891f e8d8 e29f
00000230: 2608 e620 df8f 8e1f cae7 00a7 1c8d 2221
00000240: 978d c01f 2546 081f 1b73 0a1f 7e03 f89c
00000250: 1772 9c1e c5bf 341f 50e9 e997 f1e6 c397
00000260: 1b3b 7998 7424 ba97 237b c197 c567 7d97
00000270: 7b7e 4c98 0727 1e98 00c0 7a97 9155 cd97
00000280: 36b9 2598 1b44 8398 fff9 6998 5c59 4198
00000290: 7824 2a98 a02a 3598 b324 2b98 5da4 ad98
000002a0: 12d3 bf97 0b83 0c98 4f9f 6797 c722 3498
000002b0: 084a 1798 7ef5 7e97 b3b4 9c97 3c75 281e
000002c0: a93e a61d 9a39 fb1e 7e11 1d1e f01c 931b
000002d0: d519 cf1e 2009 5b1e b0ee 391d ea34 601e
000002e0: e5d2 3e1d cdc3 48a2 d389 481d 9339 99a2
000002f0: 458d 8fa2 f44b b8a2 426e 681e c9f4 dda3
00000300: 4ae8 d61e af6a 781e a42a 501d fb25 079e
00000310: 0528 911d 23c7 879d 2548 9b1d c675 b11c
00000320: 61e1 7b1e 3fe8 2ea1 b621 649d 01c0 641e
00000330: 65aa 2ba1 933b 091f b083 c3a0 a151 0ca7
00000340: 6114 9f1e e17c 061f 60dc 7f9f fe1f 6c1e
00000350: 94dc c7a3 01c2 241f 7773 27a3 d829 571f
00000360: 8221 0b1f 1de9 f01d 35f8 9e1f 0d61 e11e
00000370: badf 871e aeae 5c1f 359e 2ba1 03b1 211e
00000380: d792 011f 7011 8698 d3e6 5797 8bad 3596
00000390: 535d 099a c49d 0c97 7330 8997 b976 5c96
000003a0: 0672 1d97 9378 b197 3fa6 4096 9778 2698
000003b0: 01da f297 66dc 0598 2e21 2798 50b7 d496
000003c0: ac41 0b99 5f8c 5697 36e4 1998 aaee 249a
000003d0: 3981 8397 2249 0c97 99d7 9995 237b c196
000003e0: 30ac 1e97 74be 9895 3059 48bc 4469 aa3d
000003f0: 5d9e 2f3e f40e 973d 7d3a b1bd 303a f73d

decoder_tail.2.bias f4 [16]
0.15427329 0.187416 -1.5346381e-22 0.100748785 0.10057737 -5.00048e-16 -2.4667267e-22 -2.637205e-17
-4.4225949e-16 -6.745783e-23 0.11086996 0.15586616 0.11629791 0.07699932 0.050607912 -3.4763396e-22
00000000: d1f9 1d3e fbe9 3f3e c086 399b 6155 ce3d
00000010: 82fb cd3d 0821 10a6 bf1a 959b 3e3d f3a3
00000020: fbf1 fea5 601a a39a ca0f e33d 619b 1f3e
00000030: 992d ee3d d2b1 9d3d 3e4a 4f3d c021 d29b

decoder_tail.4.weight f4 [16, 1, 2, 2]
0.4907748 0.52062666 0.51207024 0.44881552 -0.84896725 0.05175224 -0.78110576 0.07504781
-9.0883355e-24 -1.0097238e-23 -7.879794e-24 -7.653274e-24 0.016381733 -0.33883327 -0.6018623 -0.94098747
-0.8840785 -0.832829 -0.776947 -0.60241884 1.07839053e-16 3.8724457e-17 -7.026492e-15 8.411297e-17
-3.0042184e-23 -2.8932562e-23 -2.8712978e-23 -2.766834e-23 -2.4319091e-18 2.742421e-18 -3.6779162e-19 8.17693e-18
-6.4885146e-17 -7.275389e-15 -1.845385e-18 -1.1684588e-16 -2.9494137e-23 -3.757268e-23 -3.8330272e-23 -1.1364914e-23
-0.14836769 -0.13179256 -0.85715336 -0.82286245 0.48659685 0.49367818 0.50399977 0.43001637
-0.8341509 -0.67050624 -0.04150341 0.13703465 -0.7134346 -0.8901143 -0.5965911 -0.7529671
-0.034322508 -0.82070583 0.02343971 -0.8203093 -2.0820706e-23 -2.1329571e-23 -2.2271837e-23 -2.2585552e-23
00000000: d646 fb3e ca47 053f 0917 033f 26cb e53e
00000010: eb55 59bf 28fa 533d 8cf6 47bf abb2 993d
00000020: 42cb 2f99 1a4f 4399 da6a 1899 2d09 1499
00000030: fc32 863c 8e7b adbe a613 1abf 8ee4 70bf
00000040: f852 62bf 4834 55bf 00e6 46bf 1f38 1abf
00000050: f1a8 f824 c595 3224 f327 fda7 89f3 c124
00000060: 6c46 119a c7e8 0b9a f2d8 0a9a bfcb 059a
00000070: 7771 33a2 de5a 4a22 191b d9a0 76d6 1623
00000080: 6e9d 95a4 cf0f 03a8 562a 08a2 d1b6 06a5
00000090: f99f 0e9a bab0 359a 945a 399a 54d4 5b99
000000a0: b3ed 17be a1f4 06be 676e 5bbf 1da7 52bf
000000b0: 3923 f93e 63c3 fc3e 2106 013f 1b2b dc3e
000000c0: ea8a 55bf 4ca6 2bbf 7bff 29bd d052 0c3e
000000d0: a6a3 36bf 88de 63bf 32ba 18bf 74c2 40bf
000000e0: c295 0cbd c719 52bf a204 c03c caff 51bf
000000f0: 925d c999 7649 ce99 6666 d799 1e6f da99
